models/regular_model_complex_cnn.pth (torch, 746156 bytes, 16 tensors)

0.weight f4 [32, 1, 5, 5]
0	0xbdb6d83b	-0.089279614
1	0xbce9f0a1	-0.028557124
2	0xbe041397	-0.12898098
3	0x3dcbb9ed	0.09947572
4	0x3dab4521	0.08362795
5	0x3d956316	0.0729429
6	0x3d4f4e38	0.050611705
7	0x3a4cd288	0.0007813354
8	0xbd0d6ab8	-0.034525603
9	0x3db0df7d	0.08636377
10	0xbd2975ca	-0.041372098
11	0x3e54c93e	0.20779893
12	0xbe0e08b3	-0.13870506
13	0xbe71c57a	-0.23610488
14	0xbc4eb28e	-0.012615813
15	0x3c9c79d1	0.019101055
16	0x3e67993a	0.22617045
17	0xbe142bcd	-0.14469834
18	0xbdb513c7	-0.08841663
19	0x3d4f3ff6	0.050598107
20	0xbd8c7379	-0.06857962
21	0x3e1c1ecf	0.15246128
22	0x3e10547f	0.14094733
23	0xbd89401e	-0.067016825
24	0x3d98d935	0.07463304
25	0x3d519b3b	0.05117343
26	0xbca09631	-0.019602867
27	0xbccbbe96	-0.024871152
28	0x3d6130b5	0.05497809
29	0x3dbcc88f	0.09217941
30	0x3cf547fa	0.029941548
31	0x3e4016bf	0.18758677
32	0x3d691161	0.05690134
33	0x3d9de21a	0.07709141
34	0xbd96d0d5	-0.0736405
35	0xbe3cae55	-0.18425877
36	0xbdfba799	-0.12287826
37	0x3e25d398	0.16193998
38	0x3d27df30	0.040984333
39	0x3dd8fb15	0.10594765
40	0xbe613511	-0.219929
41	0xbe800bd8	-0.25009036
42	0xbedd765d	-0.43254367
43	0xbe415f6b	-0.18884055
44	0xbe1e7a3e	-0.15476319
45	0x3e847f24	0.2587825
46	0x3dbce642	0.09223606
47	0x3e2df78c	0.16988963
48	0xbd6e74f4	-0.058217004
49	0x3ca711c7	0.02039422
50	0xbeb21ef4	-0.3478924
51	0xbdceb0e6	-0.100923344
52	0x3d96de01	0.07366563
53	0x3e063283	0.13105206
54	0x3dd4485b	0.10365363
55	0x3dee5d4e	0.1163889
56	0xbe3ab5b5	-0.18233378
57	0xbe891428	-0.2677319
58	0xbca460ea	-0.020065743
59	0xbe04bd06	-0.12962732
60	0xba744903	-0.0009318741
61	0x3d308b05	0.04310133
62	0xbd93f2fd	-0.07224081
63	0xbe25a00d	-0.16174336
64	0xbcfaf006	-0.03063203
65	0x3db14d73	0.086573504
66	0x3e2fe0e8	0.17175639
67	0xbaf88cd2	-0.0018962866
68	0xbdd5d0b4	-0.104401976
69	0xbe229735	-0.15877993
70	0xbe521df8	-0.20519245
71	0x3e0ce048	0.13757432
72	0x3ddcf4dc	0.10788891
73	0x3dfba669	0.122875996
74	0x3d3dced5	0.04633983
75	0x3e1d4716	0.15359148
76	0xbe0feb71	-0.14054658
77	0xbe609b39	-0.21934213
78	0xbe11de0e	-0.14244863
79	0xbe944d60	-0.28965282
80	0xbd3c953e	-0.046040766
81	0x3ba85065	0.005136537
82	0x3d76dc85	0.060268898
83	0xbdc3afe7	-0.09555035
84	0x3b922a90	0.0044606403
85	0x3c79dd8a	0.015250573
86	0x3cb73818	0.022365615
87	0x3e0fb8a2	0.14035276
88	0x3e6e0958	0.23245752
89	0x3e4a565a	0.19759503
90	0x3d8e2892	0.06941332
91	0x3dea3a9a	0.114369586
92	0xbe53170e	-0.20614263
93	0xbe0b39de	-0.13596293
94	0xbd6a2999	-0.057168577
95	0xbb17e918	-0.0023179706
96	0xbc3dbca0	-0.011580616
97	0x3e4426fe	0.191555
98	0x3d0e046a	0.03467218
99	0x3e5a63b0	0.2132709
100	0xbe8cc61b	-0.27494892
101	0x3e35c912	0.17752483
102	0x3c9b1d63	0.018934911
103	0xbe21d3f4	-0.1580351
104	0x3e58398c	0.21115702
105	0xbc496938	-0.0122931525
106	0x3e489db1	0.19591404
107	0x3af3178d	0.0018546447
108	0x3cecf6f2	0.028926346
109	0x3e72f40a	0.23725906
110	0xbd7ca0dd	-0.06167685
111	0x3e49a07d	0.19690128
112	0xbbb8420b	-0.0056231073
113	0x3dae6328	0.08515006
114	0x3e55682b	0.20840518
115	0xbdcff5dc	-0.10154316
116	0xbde0065f	-0.10938715
117	0x3d553efa	0.052062012
118	0xbe083f4f	-0.133054
119	0xbe232efb	-0.1593589
120	0x3d0815dc	0.03322397
121	0xbe3c9642	-0.18416694
122	0x3d1edfc5	0.038787622
123	0xbe7eb187	-0.24872409
124	0xbc937b58	-0.01800315
125	0x3ddbe076	0.10736172
126	0x3ce0ba59	0.027432607
127	0xbd79cf95	-0.06098898
128	0x3e062d2f	0.13103174
129	0x3dfa9380	0.12235165
130	0xbd8ebd16	-0.06969659
131	0xbdda803d	-0.10668991
132	0x3e65e2d1	0.22449805
133	0x3e3d1c9f	0.1846795
134	0xbe109bfb	-0.14122002
135	0xbe110bd7	-0.14164673
136	0xbd945f59	-0.072447486
137	0xbe875e0d	-0.26438943
138	0xbd56d4f6	-0.05244919
139	0xbe46910a	-0.19391266
140	0xbe4a036f	-0.19727872
141	0xbe68d663	-0.22738032
142	0xbe294a4c	-0.16532248
143	0xbea14ce0	-0.31503963
144	0xbd8ad147	-0.06778198
145	0x3e692cce	0.22770998
146	0x3dd67ed2	0.10473408
147	0xbd1f0db8	-0.038831443
148	0x3d3395b5	0.043843944
149	0x3d6d19c0	0.057885885
150	0xbe9f6703	-0.3113328
151	0xbdf0dc36	-0.11760752
152	0x3e224b34	0.15849
153	0x3e2f4d49	0.17119326
154	0xbe0939ff	-0.1340103
155	0x3da65a86	0.08122735
156	0x3e84953c	0.25895107
157	0x3df3b2fa	0.118993714
158	0xbe3bc886	-0.18338212
159	0x3e180861	0.14846946
160	0x3e4a1a3d	0.19736572
161	0xbbe4df92	-0.0069846595
162	0xbe0a9ad8	-0.1353563
163	0xbd8334ee	-0.0640658
164	0xbd580c06	-0.05274584
165	0xbd239d8d	-0.039945174
166	0x3d006c50	0.031353295
167	0xbe0e9ae2	-0.1392627
168	0xbda968c8	-0.082719386
169	0x3de04db1	0.109523185
170	0x3db548cb	0.08851775
171	0x3dac6051	0.084168084
172	0xbc46948d	-0.012120378
173	0x3d58e8bf	0.05295634
174	0xbd61b79b	-0.05510674
175	0xbd243591	-0.040090147
176	0x3e2e493f	0.17020129
177	0x3df8f09e	0.12155269
178	0xbcdb0628	-0.026736334
179	0x3c3f48dd	0.011675087
180	0x3e25df39	0.16198434
181	0xbd5cba70	-0.05388874
182	0xbca50f6c	-0.020148955
183	0x3cd57931	0.026058765
184	0x3b551e56	0.0032519302
185	0x3d9e3f2a	0.07726891
186	0xbe6b7fc3	-0.22997956
187	0xbe833689	-0.25627545
188	0x3d48f922	0.049065717
189	0x3da29b6e	0.07939802
190	0xbea7fe15	-0.32811037
191	0xbe752f38	-0.23943794
192	0x3dddaa08	0.108234465
193	0x3e80f0f3	0.2518383
194	0x3b4be4ba	0.0031111673
195	0x3cf8f50b	0.030390283
196	0x3dbaaa50	0.09114516
197	0x3c5f7593	0.013638872
198	0x3de47e31	0.111568816
199	0xbe46cfbc	-0.19415182
200	0xbd8f173f	-0.06986856
201	0x3d97f3be	0.07419537
202	0x3b19c796	0.002346491
203	0xbdfadf1b	-0.12249585
204	0x3e40e08e	0.18835661
205	0xbd5607ea	-0.05225364
206	0x3e219dbb	0.15782826
207	0xbd5c7fca	-0.053832807
208	0xbeac4e46	-0.33653468
209	0xbd4233d2	-0.0474127
210	0x3e109ee0	0.14123106
211	0x3d012547	0.03152969
212	0xbdd6b3c6	-0.10483508
213	0x3c0e86de	0.008699147
214	0xbcf80569	-0.030276017
215	0xbdb9f3ec	-0.090797275
216	0x3e9d908a	0.30774337
217	0xbd94773d	-0.072493054
218	0x3d9ffa54	0.07811418
219	0x3dbd2837	0.09236186
220	0xbdc88571	-0.09791077
221	0xbd197853	-0.037468266
222	0x3e53b19a	0.20673218
223	0xbdaece2e	-0.085354194
224	0xbda790d4	-0.08181921
225	0xbc79484d	-0.015214992
226	0x3dd5fc8a	0.10448559
227	0xbd123a4f	-0.03570014
228	0x3d862fab	0.06552061
229	0xbe077296	-0.13227305
230	0x3bee2830	0.0072679743
231	0x399c65ba	0.0002983043
232	0x3e01970b	0.12655275
233	0xbe8bf7a7	-0.2733738
234	0xbe25a540	-0.16176319
235	0xbd966270	-0.07342994
236	0x3cc03842	0.023464326
237	0x3e2b2f92	0.16717365
238	0xbd52bcc9	-0.05144957
239	0xbe62a04d	-0.22131462
240	0x3d9eac2c	0.07747683
241	0x3cac2bfc	0.021017067
242	0xbd5fca31	-0.054636184
243	0x3e9176bd	0.28410903
244	0x3e561deb	0.2090985
245	0xbdf8a064	-0.12139967
246	0x3e1ffff3	0.1562498
247	0xbd85e617	-0.06538027
248	0x3e235224	0.15949303
249	0x3e2f006a	0.17090002
250	0xbd94585c	-0.07243416
251	0xbd85db0e	-0.06535922
252	0x3d41623e	0.04721283
253	0x3e0dcb58	0.138471
254	0xbd6352de	-0.05549895
255	0xbdcc7abd	-0.09984348

0.bias f4 [32]
0	0xbe8ae6c6	-0.2712919
1	0x3d9e0b82	0.07717039
2	0xbdc7117e	-0.09720133
3	0xbd1f5659	-0.038900707
4	0x3e13a9d5	0.14420255
5	0x3ce01eb8	0.027358398
6	0xbe4dc5b3	-0.20094948
7	0xbe30a666	-0.17250976
8	0xbe40ad52	-0.18816116
9	0xbde67111	-0.112520345
10	0xbe188a08	-0.14896405
11	0x3e3e6782	0.18594173
12	0x3e005fd2	0.12536553
13	0xbea099d4	-0.31367362
14	0xbe8014ec	-0.25015962
15	0x3d6f8f1b	0.058486085
16	0x3cc73f14	0.02432207
17	0x3cf22d33	0.029562568
18	0xbe1e8164	-0.15479046
19	0xbdfea1f0	-0.12433231
20	0x3d3c039e	0.045901887
21	0x3e458f3f	0.19292925
22	0xbe14a14c	-0.14514655
23	0xbc8cd6ad	-0.01719221
24	0xbe515b8a	-0.20445076
25	0x3d8e5ceb	0.069513164
26	0xbe43c832	-0.19119337
27	0xbe06058a	-0.1308805
28	0x3e5c9cb1	0.21544148
29	0xbe2b4af7	-0.16727816
30	0xbdc162bb	-0.094426595
31	0x3d5670dd	0.05235373

3.weight f4 [32]
0	0x3f80c0fe	1.0058897
1	0x3f85c59e	1.0450933
2	0x3f7adb37	0.97990745
3	0x3f80c5a4	1.0060315
4	0x3f7d737e	0.9900435
5	0x3f8fd007	1.123536
6	0x3f6a34c8	0.9148679
7	0x3f7a963d	0.97885495
8	0x3f7586f6	0.9590906
9	0x3f886f08	1.0658884
10	0x3f95dfb7	1.1708897
11	0x3f79b2c9	0.9753843
12	0x3f83da6d	1.0301033
13	0x3f6bf093	0.9216396
14	0x3f823d28	1.0174913
15	0x3f77dfb1	0.968257
16	0x3f85d8ac	1.0456748
17	0x3f8ea5da	1.1144364
18	0x3f5e58d9	0.8685432
19	0x3f8c443a	1.0958321
20	0x3f5d2a07	0.86392254
21	0x3f83e41f	1.0303992
22	0x3f6ef1e6	0.9333786
23	0x3f7129df	0.94204515
24	0x3f75f7e8	0.960814
25	0x3f91cd22	1.1390727
26	0x3f61e2ca	0.8823668
27	0x3f5e1369	0.8674837
28	0x3f6ec0cb	0.9326293
29	0x3f762187	0.9614491
30	0x3f83792f	1.0271357
31	0x3f85dafc	1.0457454

3.bias f4 [32]
0	0xbde12716	-0.10993783
1	0x3cb2d78b	0.021831295
2	0x3d831891	0.0640117
3	0x3c8eb994	0.017422475
4	0x3d79fb8b	0.061030906
5	0x3d91c7f0	0.07118213
6	0xbdb44c56	-0.088036224
7	0xbc7496ef	-0.0149285635
8	0xbda00db0	-0.07815111
9	0x3dcc340a	0.09970863
10	0x3c04c0ca	0.008102605
11	0x3c1dad4e	0.009623839
12	0x3cc7e01d	0.024398858
13	0x3e1bc8c5	0.15213306
14	0x3bb1d7ed	0.0054273517
15	0x3dba9d17	0.09111994
16	0x3e114c3d	0.14189239
17	0xbcb69795	-0.022289077
18	0x3dc14beb	0.09438308
19	0x3daaf8e5	0.08348254
20	0xbca8430a	-0.02053978
21	0x3d596a27	0.05307975
22	0xbd7512fe	-0.059832565
23	0xbd91d32a	-0.071203545
24	0xbdc3c03e	-0.09558152
25	0x3dfae184	0.12250045
26	0xbda76305	-0.08173183
27	0xbd249345	-0.04017951
28	0xbdb6e6f3	-0.08930769
29	0xbd8fc4ee	-0.07019983
30	0x3d4dac5d	0.050213207
31	0x3b5d1c30	0.0033738725

3.running_mean f4 [32]
0	0x3c502516	0.0127041545
1	0x3df502ef	0.1196345
2	0x3c80d150	0.015724808
3	0x3dd896c4	0.10575631
4	0x3e8011ce	0.25013584
5	0x3d82a882	0.063797966
6	0x3d3eb915	0.046563227
7	0x3d3bafea	0.04582206
8	0x3c89312a	0.016747076
9	0x3dedb01e	0.11605857
10	0x3cdd2a63	0.02699775
11	0x3e89c240	0.26906013
12	0x3e162f07	0.14666377
13	0x3da7b7eb	0.081893764
14	0x3c56acba	0.013102705
15	0x3dc891e3	0.09793451
16	0x3d3efe68	0.04662934
17	0x3d7e15d4	0.062032536
18	0x3d87ab72	0.066244975
19	0x3d1def34	0.0385582
20	0x3e2263e0	0.15858412
21	0x3e9c2907	0.3050005
22	0x3d5006b3	0.05078764
23	0x3d825da3	0.06365516
24	0x3c80934c	0.015695237
25	0x3dc8bfb0	0.098021865
26	0x3cfc90ba	0.03083073
27	0x3d9a01fa	0.07519908
28	0x3e9dfcd5	0.30856958
29	0x3d14d324	0.036334172
30	0x3d0dc769	0.034614
31	0x3d8bd62a	0.06827958

3.running_var f4 [32]
0	0x3b0737b0	0.0020632558
1	0x3c812629	0.015765266
2	0x3b40ea30	0.0029436462
3	0x3ce14b53	0.027501738
4	0x3d3dc34d	0.04632883
5	0x3c1d5f65	0.009605263
6	0x3c4689bc	0.012117799
7	0x3c196d46	0.009364432
8	0x3b2b9ee9	0.0026187247
9	0x3d24e908	0.0402613
10	0x3ba90349	0.0051578623
11	0x3cf002b2	0.02929816
12	0x3c832428	0.016008452
13	0x3ce10abc	0.027470939
14	0x3b28df90	0.002576802
15	0x3c96f101	0.018425466
16	0x3c18846d	0.0093089165
17	0x3c0f7c52	0.008757668
18	0x3c9ca81c	0.01912313
19	0x3c02233c	0.007942971
20	0x3d2d1e81	0.04226542
21	0x3d56b39c	0.052417383
22	0x3c929f6c	0.017898284
23	0x3c69587d	0.014242289
24	0x3b5188a6	0.0031972318
25	0x3c538a5a	0.012911404
26	0x3c2b7dc9	0.010467001
27	0x3cf0e783	0.029407268
28	0x3cf1a168	0.02949591
29	0x3bcc463c	0.0062339585
30	0x3c367d9e	0.011138348
31	0x3bc68d3a	0.006059316

5.weight f4 [64, 32, 5, 5]
0	0xbd9e6cea	-0.077356175
1	0x3d8c142b	0.06839784
2	0xbd95cea3	-0.073148035
3	0xbcc33e2f	-0.023833362
4	0x3c52d4ae	0.01286809
5	0x3db8f42c	0.09030947
6	0x3da7a4f2	0.08185758
7	0xbddf440f	-0.10901653
8	0xbd5cbb56	-0.053889595
9	0x3c90189f	0.017589865
10	0x3dd34d92	0.1031753
11	0x3d2a1269	0.041521464
12	0xbd998d2a	-0.07497628
13	0xbd1b1bb2	-0.03786821
14	0x3ce18c0c	0.0275326
15	0xbcfd68ba	-0.030933727
16	0xbdf6317f	-0.120211594
17	0xbdcd38c2	-0.10020591
18	0x3c32e086	0.010917788
19	0x3aaca7db	0.0013172583
20	0xbc0baf52	-0.008525686
21	0xbb75fbbb	-0.0037534076
22	0x3ca5043f	0.020143626
23	0x3d20feb1	0.039305393
24	0x3da598a0	0.080857515
25	0x3bb0bce2	0.0053936103
26	0xbcf3389b	-0.029690078
27	0xbd0c2a9e	-0.03422033
28	0xbb83272c	-0.0040024724
29	0x3da2e35c	0.079535216
30	0xbc20ddca	-0.009818504
31	0x3d9bfc66	0.076165006
32	0xbb49219a	-0.0030690194
33	0xbdd439d6	-0.10362594
34	0xbdcf1e50	-0.101132035
35	0x3d120c19	0.03565607
36	0x3d89cabd	0.067281224
37	0x3d6d1271	0.057878915
38	0xbe48159b	-0.19539492
39	0xbe1bec9b	-0.15226977
40	0x3db8ee70	0.09029853
41	0x3df645bb	0.12025019
42	0xbe18942d	-0.14900275
43	0xbe5be2ac	-0.21473187
44	0xbd7f802a	-0.062378086
45	0x3dfe2799	0.124098964
46	0xbd0b55f9	-0.034017537
47	0xbdb1d727	-0.08683615
48	0xbd8f00d6	-0.06982581
49	0xbd51f8d3	-0.051262688
50	0x3d46f6da	0.04857526
51	0x3d05b811	0.032646243
52	0x3d0b19be	0.033960097
53	0x3da2ee3a	0.07955594
54	0x3c1d2238	0.009590678
55	0x3d443083	0.047897827
56	0x3c8dab91	0.017293723
57	0xbc814cb0	-0.015783638
58	0x3ca33a8d	0.01992538
59	0x3d6f9406	0.058490776
60	0x3c2fd59e	0.010732083
61	0xbd858af0	-0.06520641
62	0xbdd15244	-0.10220769
63	0xbce71b5f	-0.028211294
64	0xbd623695	-0.055227835
65	0xbcfeed43	-0.031118995
66	0xbcbb7e84	-0.022887476
67	0xbe42961e	-0.19002578
68	0xbd7820a0	-0.06057799
69	0xbda96095	-0.08270375
70	0x3dac5e7f	0.08416461
71	0x3d80ff33	0.062986754
72	0x3ca14ab7	0.019688947
73	0xbe171b65	-0.14756544
74	0xbd1e20b7	-0.038605418
75	0xbc92760d	-0.017878557
76	0xbcf9d84a	-0.030498642
77	0xbc1c6030	-0.009544417
78	0x3d8c6d43	0.068567775
79	0x3cd86e8e	0.026419904
80	0xbbdf4a29	-0.0068142605
81	0xbcb843f6	-0.022493344
82	0x3ca3c80b	0.019992849
83	0x3d54904d	0.05189543
84	0x3dbfa44b	0.09357508
85	0xbb3f64ea	-0.0029204437
86	0x3d837eeb	0.06420692
87	0x3d287207	0.04112437
88	0xbcdfa90f	-0.027302293
89	0x3d361fb4	0.04446383
90	0x3c0569f8	0.008142941
91	0x3d938c2b	0.07204469
92	0x3d22355a	0.03960166
93	0xbd9650a2	-0.07339598
94	0x3be7a045	0.007068666
95	0x3dff3efe	0.12463187
96	0x3e329495	0.17439492
97	0xbd66c18d	-0.05633693
98	0xbe5b63c2	-0.21424773
99	0x3cf5b48f	0.029993324
100	0xbe1d90ae	-0.15387222
101	0x3d05c32a	0.032656826
102	0xbc8e3b5e	-0.017362293
103	0x3d022db6	0.031781875
104	0xbd583d7a	-0.052793004
105	0xbd2c5328	-0.04207149
106	0xbd92e34b	-0.07172259
107	0xbd87aa37	-0.06624263
108	0xbdedc8e3	-0.11610582
109	0xbdb0886d	-0.08619771
110	0xbd4888f1	-0.048958723
111	0xbc837d55	-0.016050974
112	0xbdd9eb2e	-0.1064056
113	0xbd8f8f51	-0.07009757
114	0x3db31cc3	0.0874572
115	0xbcae884a	-0.021305222
116	0xbe01982d	-0.12655707
117	0xbcab90db	-0.020943096
118	0x3c1e097f	0.009645819
119	0x3d2b748d	0.0418592
120	0x3c9b3a83	0.018948799
121	0xbc9c7a2d	-0.019101227
122	0x3e0d2e8d	0.13787289
123	0x3dd96d68	0.10616571
124	0x3bed8310	0.00724829
125	0x3be026bc	0.006840555
126	0x3cedb07e	0.029014822
127	0x3ce1ba3c	0.027554624
128	0x3c2c4e3f	0.010516702
129	0xbc9198fd	-0.017773146
130	0x3d7ccc08	0.061718017
131	0x3d282b91	0.041057173
132	0xbde2a691	-0.11066926
133	0xbdf9180d	-0.121627904
134	0xbdafb6e3	-0.08579805
135	0x3cd538ae	0.026028004
136	0x3c547a58	0.012968622
137	0x3d0edf13	0.03488071
138	0xbe0554a6	-0.13020572
139	0xbe16e9ca	-0.14737621
140	0x3d63fdc9	0.05566195
141	0x3db8a7bc	0.09016368
142	0xbda8525a	-0.08218832
143	0xbe34dcb7	-0.17662321
144	0xbdcb4147	-0.0992456
145	0x3d2e1183	0.04249717
146	0x3d3eb3fc	0.046558365
147	0xbdeb619f	-0.11493229
148	0xbe1cba4a	-0.15305439
149	0xbd7b1f12	-0.061308928
150	0x3ca0f9ed	0.019650424
151	0xbdd354c6	-0.103189036
152	0xbdb4b405	-0.088233985
153	0xbd8dad4c	-0.069178194
154	0xbdae1908	-0.08500868
155	0xbd93ef3d	-0.072233655
156	0x3d788b0f	0.06067949
157	0xbd20303a	-0.039108492
158	0xbe1c61b1	-0.15271641
159	0x3c0c5b69	0.008566716
160	0x3c134420	0.00898841
161	0xbd98fd8e	-0.07470237
162	0xbdd922e2	-0.106023565
163	0xbdb5464f	-0.08851301
164	0x3d0e9492	0.034809656
165	0x3d91859f	0.07105564
166	0xbd22b169	-0.039719973
167	0xbe5e08d4	-0.21683055
168	0xbc8f1e54	-0.017470516
169	0x3dd1ce6d	0.10244451
170	0x3db1fe64	0.08691099
171	0xbda3af5a	-0.0799243
172	0x3de74b44	0.11293653
173	0x3e288110	0.16455483
174	0x3e002ebb	0.12517826
175	0x3c8c73c8	0.017145053
176	0xbe3b625f	-0.18299244
177	0xbd85711a	-0.06515713
178	0xbc932a16	-0.017964404
179	0x3c1ebfe2	0.009689303
180	0xbd1bd13b	-0.038041335
181	0xbe04ce95	-0.1296943
182	0xbc68a5a3	-0.014199647
183	0x3ccb13eb	0.024789771
184	0x3d1ed84c	0.038780496
185	0x3d9215e2	0.0713308
186	0xbe2ee02a	-0.170777
187	0xbdb839e4	-0.08995417
188	0x3e1262fa	0.14295569
189	0xbb196b79	-0.0023410006
190	0xbdaf1500	-0.08548927
191	0xbd53f5fd	-0.051748265
192	0x3dca485a	0.09877081
193	0xbc7d1043	-0.015445772
194	0xbd4fb436	-0.050708972
195	0xbdbd973b	-0.092573605
196	0x3d8140d3	0.06311192
197	0x3e14816c	0.14502496
198	0x3da34eac	0.0797399
199	0xbc829334	-0.015939333
200	0xbd93b942	-0.072130695
201	0xbc21d837	-0.00987821
202	0x3ce2eb3f	0.027700065
203	0xbc69e527	-0.014275826
204	0xbd8a1b62	-0.06743504
205	0x3d2debd1	0.04246122
206	0xbd16604a	-0.036712922
207	0x3c9faef7	0.01949261
208	0x3d047518	0.03233823
209	0x3d96c0a3	0.07360961
210	0x3df86ec2	0.121305004
211	0x3d872c26	0.066002175
212	0xbd664a62	-0.05622328
213	0x3d96ba75	0.073597826
214	0x3b2765bc	0.0025542816
215	0x3d85c06b	0.065308414
216	0x3cd82ffb	0.026390066
217	0xbd26e470	-0.0407452
218	0xbd659d61	-0.05605829
219	0xbdc7fe72	-0.097653285
220	0x3de04bfa	0.109519914
221	0xbd203eae	-0.039122276
222	0xbdbb0213	-0.09131255
223	0x3bc59d7d	0.006030737
224	0x3d6fd93f	0.05855679
225	0x3c23f133	0.010006237
226	0xbd9ba984	-0.07600692
227	0xbd9c0385	-0.07617859
228	0xbcac8f05	-0.02106429
229	0xbc58959f	-0.013219266
230	0xbb591cb1	-0.0033128674
231	0x3d2a0d1c	0.04151641
232	0x3cb74afa	0.022374619
233	0x3da258f9	0.079271264
234	0x3d85d949	0.065355845
235	0xbd5072d5	-0.050890762
236	0x3c83a3ae	0.01606926
237	0xbd0a70c1	-0.033798937
238	0x3de388df	0.111100905
239	0xbd0d3ba1	-0.034480695
240	0x3dce79bc	0.10081813
241	0x3e10d41a	0.1414341
242	0xbcfca19b	-0.030838778
243	0x3cdd7070	0.027031153
244	0xbbc4d409	-0.006006722
245	0x3e072acd	0.13199921
246	0x3cb466ae	0.022021618
247	0xbdc967c3	-0.09834244
248	0x3d701aaf	0.058619197
249	0x3cd0b4b2	0.025476787
250	0x3ded7bf9	0.115959115
251	0x3e08677d	0.13320728
252	0xbd14eb6c	-0.03635733
253	0x3c48731c	0.012234475
254	0xbd46d313	-0.04854114
255	0x3e0a9368	0.13532794

5.bias f4 [64]
0	0xbd30be68	-0.043150336
1	0xbe5b61e9	-0.21424069
2	0x3da0e9b9	0.07857079
3	0xbeafc1dc	-0.3432759
4	0xbe3c503d	-0.18389983
5	0xbdd2154c	-0.10257968
6	0xbde8b423	-0.11362483
7	0xbc92249c	-0.017839722
8	0xbe545334	-0.20734864
9	0xbec78e98	-0.38975978
10	0x3d04e2c6	0.03244283
11	0xbeac2298	-0.33620143
12	0xbe835436	-0.25650185
13	0xbdee0227	-0.11621504
14	0xbe42c2e9	-0.19019665
15	0xbef923a8	-0.48660016
16	0x3d2a88d2	0.04163439
17	0xbd7435c6	-0.059621595
18	0xbd9c88f1	-0.07643307
19	0xbcffb61b	-0.031214764
20	0x3d335799	0.04378471
21	0xbb80e134	-0.0039330963
22	0xbd5b9b46	-0.053614877
23	0xbdf0923d	-0.11746643
24	0xbe7bdff9	-0.24597158
25	0xbda0d69b	-0.07853433
26	0xbe7b35a7	-0.24532185
27	0xbdb25c7f	-0.087090485
28	0x3cbdce12	0.023169551
29	0xbe14ca96	-0.14530405
30	0xbe2c9520	-0.16853762
31	0xbdff3be0	-0.12462592
32	0xbdcd6366	-0.10028724
33	0x3d5da511	0.054112498
34	0xbe1518b2	-0.14560202
35	0xbe01ade9	-0.12663998
36	0xbde1fe0b	-0.11034783
37	0xbe378722	-0.17922643
38	0xbd212dd1	-0.039350335
39	0xbe83f12f	-0.25769946
40	0xbe9a27de	-0.3010854
41	0xbe3d32b1	-0.18476368
42	0x3af8dcec	0.0018986738
43	0xbd7fe9aa	-0.0624787
44	0xbe037b70	-0.12840056
45	0xbe577386	-0.21040162
46	0xbe91b89a	-0.28461152
47	0x3c48b100	0.012249231
48	0xbe2e5aac	-0.17026776
49	0xbd89e9d8	-0.06734055
50	0x3b68c416	0.0035517267
51	0xbe71e37a	-0.23621932
52	0xbe005c67	-0.12535249
53	0x3ab9c08f	0.0014171767
54	0xbe50771f	-0.20357941
55	0xbdd2ea3f	-0.10298585
56	0xbe837b28	-0.25679898
57	0xbe682b6f	-0.22672819
58	0xbdf5cec5	-0.12002329
59	0xbe6009f0	-0.21878791
60	0xbcc1b7ec	-0.023647271
61	0xbca75705	-0.020427236
62	0xbe102aac	-0.14078778
63	0xbd3961d6	-0.04525932

8.weight f4 [64]
0	0x3f7ef79e	0.99596584
1	0x3f8ab061	1.0835077
2	0x3f647d8e	0.8925408
3	0x3f7a96c9	0.9788633
4	0x3f8c309f	1.0952338
5	0x3f6cbf96	0.92479837
6	0x3f6141e6	0.8799118
7	0x3f84bf0b	1.0370802
8	0x3f7ef4f6	0.9959253
9	0x3f81daff	1.0144957
10	0x3f6286b7	0.8848681
11	0x3f6fdfbf	0.93700784
12	0x3f734005	0.9501956
13	0x3f85d09b	1.0454286
14	0x3f669cc4	0.90082955
15	0x3f8150a1	1.0102731
16	0x3f6bd69c	0.9212434
17	0x3f88c71d	1.0685765
18	0x3f66357f	0.8992538
19	0x3f891417	1.0709256
20	0x3f69e2a5	0.9136146
21	0x3f6b9fc5	0.92040664
22	0x3f72894a	0.94740736
23	0x3f68baff	0.90910333
24	0x3f8d5702	1.1042178
25	0x3f6256e2	0.8841382
26	0x3f8137c1	1.009514
27	0x3f62ffa6	0.8867134
28	0x3f84e3cb	1.0382017
29	0x3f73a135	0.9516786
30	0x3f5ac518	0.8545699
31	0x3f5a0e39	0.8517795
32	0x3f6e7cb6	0.93159044
33	0x3f7c8e77	0.98654884
34	0x3f68ad8e	0.90889823
35	0x3f68c220	0.9092121
36	0x3f60bc47	0.8778729
37	0x3f67740d	0.90411454
38	0x3f7285eb	0.9473559
39	0x3f75b9e5	0.9598678
40	0x3f8056fe	1.0026548
41	0x3f718f17	0.9435896
42	0x3f6916c0	0.9105034
43	0x3f821027	1.0161179
44	0x3f7dd14b	0.9914748
45	0x3f695387	0.9114308
46	0x3f7178f5	0.9432519
47	0x3f6b1837	0.91833824
48	0x3f790eb6	0.9728807
49	0x3f5ee1dd	0.8706339
50	0x3f69e153	0.9135944
51	0x3f7a7df3	0.97848433
52	0x3f73c757	0.95226043
53	0x3f6a2b9f	0.9147281
54	0x3f680577	0.9063334
55	0x3f65c126	0.89747846
56	0x3f68030f	0.9062967
57	0x3f88c8c2	1.0686266
58	0x3f830dc3	1.0238575
59	0x3f7d136f	0.9885778
60	0x3f6566a1	0.89609724
61	0x3f656d74	0.8962014
62	0x3f62e180	0.88625336
63	0x3f705d7c	0.93892646

8.bias f4 [64]
0	0x3dd5cfd2	0.10440029
1	0x3dbe6648	0.09296852
2	0x3e2abc2d	0.16673346
3	0x3dae608e	0.0851451
4	0x3da1edf1	0.07906712
5	0x3e1e1591	0.15437914
6	0x3e0aa9de	0.13541362
7	0x3e05bcdd	0.13060327
8	0xbbec64ac	-0.0072141495
9	0x3de2c701	0.11073113
10	0x3daf4417	0.08557909
11	0x3de0f985	0.10985092
12	0x3d9eedb5	0.07760183
13	0x3e209acf	0.15684055
14	0x3dd70b57	0.1050021
15	0x3df82b4d	0.12117634
16	0x3e10ae27	0.14128934
17	0x3e20ee88	0.15715992
18	0x3dbf88bd	0.09352253
19	0x3e2a997a	0.16660109
20	0x3e3e0848	0.18557847
21	0x3de8467f	0.11341571
22	0x3d3d104c	0.04615812
23	0x3d9c9efa	0.0764751
24	0x3e145210	0.1448443
25	0x3dcb14a5	0.09916047
26	0x3e0f342c	0.13984746
27	0x3d56931d	0.052386392
28	0x3e0aae7f	0.13543127
29	0x3c5e0335	0.013550569
30	0x3e031700	0.12801743
31	0x3e31bb31	0.17356564
32	0x3ddc03ac	0.10742888
33	0x3e11459e	0.14186713
34	0x3d94d5ba	0.072673276
35	0x3df75b91	0.12078012
36	0x3d1bf0b0	0.038071334
37	0x3da2487d	0.07923982
38	0x3def76a1	0.116925485
39	0x3d886e57	0.06661671
40	0x3e040995	0.1289428
41	0x3de011af	0.10940873
42	0x3d53b9ff	0.05169105
43	0x3d9b0010	0.07568371
44	0x3d45968c	0.048239276
45	0x3e286f4f	0.16448711
46	0x3e495d4a	0.19664493
47	0x3e04b758	0.12960565
48	0x3d778868	0.06043282
49	0xbbb86bec	-0.0056280997
50	0x3dad6b55	0.084677376
51	0x3de3d9c4	0.1112552
52	0x3db36f39	0.087614484
53	0x3e741c19	0.23838843
54	0x3dc87df4	0.09789649
55	0x3dffcf5d	0.12490723
56	0x3dda838c	0.10669622
57	0x3e10a2fb	0.14124672
58	0x3d91e8d5	0.07124487
59	0x3ddecbb7	0.10878699
60	0x3d8fc275	0.070195116
61	0x3dce66d2	0.10078205
62	0x3d9f4e8b	0.07778653
63	0x3e01cb7f	0.12675284

8.running_mean f4 [64]
0	0x40b8d836	5.776393
1	0x40b38a1c	5.610609
2	0x40afdeaf	5.495933
3	0x405d6073	3.4590118
4	0x40808ddc	4.017317
5	0x4073b8a2	3.808144
6	0x409b12e0	4.846054
7	0x4084372c	4.131735
8	0x401e6f8e	2.4755588
9	0x408c9387	4.3930087
10	0x4089c8b9	4.3057523
11	0x408fdc2e	4.4956274
12	0x40682c98	3.6277218
13	0x40b0b6b7	5.522304
14	0x4082cee5	4.0877557
15	0x4090a63f	4.5202937
16	0x40acaedb	5.3963447
17	0x404c6b99	3.1940672
18	0x406aa64b	3.6663997
19	0x409236dc	4.5691967
20	0x406e871d	3.7269967
21	0x408975ee	4.2956457
22	0x40710799	3.7660887
23	0x409fa006	4.988284
24	0x40b3b573	5.6158996
25	0x40a001a9	5.0002027
26	0x407fbeff	3.9960325
27	0x40607433	3.5070922
28	0x40944ede	4.6346273
29	0x402f7c85	2.741975
30	0x4062627e	3.5372615
31	0x40766b21	3.8502886
32	0x408c3bf4	4.3823185
33	0x40658f55	3.5868733
34	0x4050fed3	3.2655532
35	0x40ad62ad	5.4182954
36	0x405c513a	3.4424577
37	0x40dbc43f	6.867706
38	0x408e7958	4.4523125
39	0x4072ba0b	3.7926052
40	0x4096e56b	4.715505
41	0x409a465f	4.82109
42	0x407deba2	3.967507
43	0x40b98c22	5.798356
44	0x408c7ea4	4.390459
45	0x409e1450	4.9399796
46	0x40c8546c	6.2603054
47	0x408b097e	4.3449087
48	0x40600038	3.5000134
49	0x4056f7bb	3.3588703
50	0x40894776	4.2899733
51	0x4063461c	3.5511541
52	0x40a68409	5.2036176
53	0x408ec161	4.461106
54	0x406a07e4	3.6567316
55	0x409555c3	4.666719
56	0x40b08448	5.5161476
57	0x4080ecb9	4.028897
58	0x405f6a38	3.490858
59	0x40970373	4.719171
60	0x4077d4d2	3.8723645
61	0x407fc96b	3.9966686
62	0x40a486ac	5.1414394
63	0x407d0897	3.9536493

8.running_var f4 [64]
0	0x41f23bcd	30.2792
1	0x42110b34	36.26094
2	0x4223b208	40.92386
3	0x4156d0ee	13.426008
4	0x41c5dcaf	24.732756
5	0x41acb1d4	21.58683
6	0x421a4a1a	38.572365
7	0x41af1073	21.883032
8	0x413bbcba	11.733576
9	0x4206c32a	33.69059
10	0x419fc48f	19.970976
11	0x41c9658c	25.174583
12	0x41ae8b25	21.817942
13	0x422b1e3c	42.779526
14	0x41af438b	21.90798
15	0x41cb9e7c	25.452385
16	0x4200898b	32.13432
17	0x419ea5b5	19.830912
18	0x4185f045	16.74232
19	0x421a738c	38.61284
20	0x41b506c2	22.6283
21	0x41a7ad57	20.959639
22	0x4181f9f7	16.247053
23	0x41caa359	25.32976
24	0x4214a9e5	37.165913
25	0x420c8710	35.131897
26	0x41c18f72	24.195042
27	0x4176615c	15.398769
28	0x41d2934e	26.321926
29	0x4169977f	14.599486
30	0x41ad2118	21.64116
31	0x41c5abb3	24.708838
32	0x41b45355	22.54069
33	0x41b18ec0	22.194702
34	0x414b64b2	12.712084
35	0x41d1e79c	26.23809
36	0x416dc1d3	14.85982
37	0x42306c34	44.105667
38	0x41aba60d	21.45608
39	0x4198c651	19.096834
40	0x41d89eec	27.077599
41	0x4204177f	33.022945
42	0x419917b7	19.13658
43	0x42161846	37.523705
44	0x41a8fa61	21.122255
45	0x41f2e950	30.363922
46	0x423d42f8	47.3154
47	0x418d2872	17.644749
48	0x41a57760	20.683289
49	0x4173f15a	15.246424
50	0x41a2c4e0	20.34613
51	0x41a92883	21.144781
52	0x41ce3c4d	25.779444
53	0x4200c92b	32.196453
54	0x4194e39c	18.611137
55	0x41e021b0	28.016449
56	0x420b0548	34.755157
57	0x41cfc1f9	25.969713
58	0x417810bd	15.5040865
59	0x41cffdc4	25.998909
60	0x416fdf26	14.99198
61	0x41ba75a0	23.307434
62	0x41dffbd4	27.997963
63	0x41972324	18.892159

11.weight f4 [128, 1024]
0	0xbe0844af	-0.1330745
1	0x3c52dd1e	0.012870101
2	0x3d0f0c76	0.034923993
3	0xbd8df8f1	-0.069322474
4	0xbe01ad3f	-0.12663744
5	0xbc4cde19	-0.012504124
6	0x3d804a61	0.06264187
7	0xbc2f019c	-0.010681536
8	0xbc8f3109	-0.017479436
9	0xbd07da78	-0.033167332
10	0xbcf6539e	-0.030069169
11	0x3d650725	0.055915017
12	0x3d976153	0.0739161
13	0x3a76ba0e	0.00094118796
14	0xbdda0f2f	-0.10647427
15	0xbba9b604	-0.0051791687
16	0xbd5fcb6f	-0.05463737
17	0x3dcc342e	0.0997089
18	0x3de084ce	0.109628305
19	0x3dc124aa	0.09430821
20	0xbdf1b918	-0.11802882
21	0x3d21a55b	0.039464336
22	0x3c846678	0.016162142
23	0x3d322866	0.04349556
24	0x3ab79fbb	0.0014009395
25	0xbdd1004f	-0.10205137
26	0xbd5aab77	-0.053386178
27	0xbd15ae0e	-0.036542945
28	0x3a556c06	0.0008141402
29	0x3c6cd7b2	0.014455723
30	0x3c984551	0.01858774
31	0x3df518f0	0.11967647
32	0x3d6bd6be	0.05757784
33	0x3cf1b3f0	0.029504746
34	0x3ab533ab	0.0013824602
35	0x3b52effd	0.0032186501
36	0xbcde7a77	-0.027158005
37	0x3b892be3	0.00418614
38	0x3d38e2a3	0.045138013
39	0xbbf1ee72	-0.007383161
40	0xbced7d97	-0.02899055
41	0x3cfa991d	0.030590588
42	0xbd6491a9	-0.055802975
43	0x3d915747	0.07096725
44	0x3d868d67	0.06569939
45	0xba05a9cd	-0.00050988497
46	0x3c8bd56d	0.017069543
47	0x3d2cf2ef	0.042223867
48	0xbd133d51	-0.035947148
49	0xbdce30b6	-0.100678846
50	0x3c0d67a5	0.008630668
51	0x3dc59221	0.096470125
52	0xbd03f435	-0.032215316
53	0xbdfeabb5	-0.12435094
54	0xbd7f570b	-0.06233887
55	0xbd18b091	-0.03727776
56	0xbd2b34f0	-0.041798532
57	0x3cd76106	0.026291382
58	0x3d9b44ad	0.07581458
59	0x3d1f9af2	0.038966127
60	0xbd9a7159	-0.075411506
61	0xbc650df2	-0.013980376
62	0xbd66a055	-0.05630525
63	0xbdbe5833	-0.092941664
64	0xbc809387	-0.015695347
65	0xbd690334	-0.05688782
66	0x3d7ff2a6	0.062487267
67	0x3d09ea06	0.033670448
68	0xbd8af77e	-0.06785487
69	0xbdb6b418	-0.08921069
70	0xbd6c081c	-0.05762492
71	0xbda0ef31	-0.07858122
72	0xbd6b3b99	-0.057429884
73	0xbd86a38e	-0.06574164
74	0x3d715e17	0.05892762
75	0xbc90b4e7	-0.017664386
76	0x3d8da59d	0.06916354
77	0x3c9b474a	0.018954892
78	0x3c31f82d	0.010862392
79	0x3832a73c	4.2594256e-05
80	0xbce80adc	-0.02832549
81	0x3d27da6b	0.040979784
82	0x3a0e72d2	0.00054339797
83	0xbdaa6229	-0.08319504
84	0x3d47e53f	0.04880261
85	0x3e0efe47	0.13964187
86	0xbd6eb782	-0.058280475
87	0xbd347618	-0.044057935
88	0x3c952622	0.01820666
89	0xbcae94dd	-0.021311218
90	0x3c3fff36	0.011718562
91	0x3d0cc2f9	0.034365628
92	0x3d9a6f78	0.07540792
93	0x38f36c6c	0.00011607338
94	0xb9c2118c	-0.00037015637
95	0x3dd9e1bd	0.10638759
96	0x3d114546	0.035466455
97	0x3df1c95a	0.11805983
98	0x3c9e902c	0.019355856
99	0xbcafac96	-0.0214446
100	0x3cc2bac1	0.023770692
101	0xbd4dbf85	-0.050231475
102	0xbd8b6783	-0.06806853
103	0xbc049667	-0.008092499
104	0xbd2067f9	-0.039161656
105	0xbb9c83f2	-0.0047764713
106	0x3c958ca6	0.018255543
107	0x3b931194	0.0044881795
108	0xbd2380b6	-0.03991767
109	0xbce463f0	-0.027879685
110	0xbc845240	-0.016152501
111	0x3dc8f260	0.09811854
112	0x3d1aa902	0.037758835
113	0xbdb7c7e4	-0.08973673
114	0xbd778d02	-0.06043721
115	0x3cf98be1	0.030462207
116	0xbd9d2d76	-0.076746866
117	0xbde19fd6	-0.110168144
118	0xbd6530e7	-0.05595484
119	0x3db14307	0.086553626
120	0x3d247492	0.040150233
121	0xbc9e7019	-0.019340562
122	0xbdcfc706	-0.101453826
123	0xbc20ae47	-0.009807176
124	0x3e3fd3fd	0.18733211
125	0xbcd9de11	-0.026595147
126	0xbce15842	-0.027507905
127	0x3d8de83d	0.069290616
128	0x3cfe2345	0.031022677
129	0x3cdbd6ef	0.026835887
130	0xbd827606	-0.063701674
131	0xbcf59eab	-0.029982885
132	0x3cddb608	0.027064338
133	0x3e089304	0.13337332
134	0xbda4d7af	-0.08048951
135	0xbd4bb098	-0.04972896
136	0x3d655a86	0.055994533
137	0x3d951e8e	0.072812185
138	0xbc517ff4	-0.012786854
139	0x3d0fb38b	0.035083335
140	0x3ab52c38	0.0013822382
141	0x3d416066	0.047211073
142	0xbc85e23c	-0.016343229
143	0x3c5d2d1f	0.013499527
144	0xbcbfc819	-0.023410844
145	0x3c99941f	0.018747387
146	0x3dc5fc3a	0.09667249
147	0x3dd82b4a	0.10555132
148	0xbe411b1f	-0.18858002
149	0xbdf5e0ee	-0.120057926
150	0xbcc1f798	-0.023677632
151	0x3d13cea9	0.03608576
152	0xbdee05bc	-0.116221875
153	0xbdb10049	-0.086426325
154	0x3ca8c0a5	0.020599673
155	0x3c3b883c	0.011446055
156	0x3d18c204	0.037294403
157	0xbc5fa489	-0.013650068
158	0x3d2483b8	0.04016468
159	0x3d2b473b	0.041815978
160	0xbd3c1d38	-0.045926303
161	0xbe336685	-0.17519577
162	0xbda75ce1	-0.08172012
163	0x3c850e88	0.01624228
164	0x3be74452	0.007057705
165	0xbd8d9e9b	-0.06915017
166	0x3b6167b4	0.0034394087
167	0xbd82857b	-0.06373116
168	0x3d9703c9	0.07373769
169	0xbd19c6bd	-0.037543047
170	0x3c508bfa	0.0127286855
171	0x3c186543	0.009301486
172	0x3d50f694	0.051016405
173	0x3d97f3f8	0.0741958
174	0x3c4339eb	0.011915664
175	0x3c4b9acd	0.012427044
176	0x3da9214a	0.082583025
177	0x3dcbb0ce	0.09945832
178	0x3de8caf3	0.113668345
179	0xbd7415e8	-0.059591204
180	0x3d88e2b3	0.066838644
181	0xbcee2245	-0.029069075
182	0x3d7f0d3e	0.062268488
183	0x3d63cd5b	0.055615764
184	0xbd7751a1	-0.06038058
185	0x3df2fbcf	0.11864435
186	0x3d1d0385	0.038333435
187	0xbcf5d4e6	-0.030008744
188	0xbdad16c8	-0.08451611
189	0xbd05bbf9	-0.032649968
190	0xbc0837f7	-0.008314124
191	0xbb22a5ce	-0.0024818066
192	0xbc6e9f7d	-0.014564392
193	0x3d9f3dd0	0.07775462
194	0xbddaeeb0	-0.10690057
195	0xbda1371c	-0.078718394
196	0x3d45fc9b	0.048336606
197	0x3d433187	0.047654655
198	0xbd851341	-0.06497813
199	0x3d893242	0.06699039
200	0xbc0349f6	-0.008013239
201	0xbaa98e8f	-0.0012936163
202	0xbca7f365	-0.020501802
203	0x3d4f1cb1	0.05056447
204	0x3da0e0b5	0.078553595
205	0x3bb1368f	0.005408115
206	0xbdab16cb	-0.08353957
207	0x3d40e411	0.0470925
208	0x3b4b5d42	0.0031030928
209	0x3c910cca	0.017706294
210	0xbc262589	-0.010140785
211	0x3d56611d	0.05233871
212	0xbe1791d7	-0.14801727
213	0xbe0d547e	-0.13801762
214	0x3d5f6d5d	0.054547656
215	0x3ac65128	0.0015130388
216	0xbde0af0e	-0.10970889
217	0x3c87ecf6	0.016592484
218	0x3dd2440f	0.102668874
219	0xbd519707	-0.05116942
220	0xb9d0dd08	-0.00039837533
221	0xbd01c459	-0.031681392
222	0x3e045093	0.12921362
223	0x3d3f1939	0.046654914
224	0x3e0f2a08	0.13980877
225	0x3daf8af2	0.085714236
226	0xbcb204d2	-0.021730814
227	0x3d6f37d0	0.058402836
228	0x3c7372f3	0.014858949
229	0xbcbeaa6c	-0.023274623
230	0x3d199629	0.03749672
231	0x3d992059	0.07476873
232	0x3c8ef64c	0.017451428
233	0xbd77c153	-0.060487103
234	0xbd79c3f4	-0.06097789
235	0x3c001d29	0.007819452
236	0xbddecdef	-0.108791225
237	0xbd83323c	-0.06406066
238	0xbc1ae7af	-0.009454652
239	0xbda25bef	-0.07927691
240	0x3c002776	0.007821908
241	0xbe2d1306	-0.16901788
242	0xbdef5d18	-0.11687678
243	0x3dbfd66b	0.09367069
244	0x3b7bd6fe	0.0038427706
245	0xbe05e582	-0.13075832
246	0xbbfbb52e	-0.0076815104
247	0x3d52b6e3	0.051443946
248	0x3c6f360a	0.014600286
249	0xb9e07cba	-0.00042817538
250	0x3d33651b	0.043797594
251	0x3c96c3ae	0.018403854
252	0x3c830b49	0.015996592
253	0x3c9cf8fd	0.019161696
254	0x3be66811	0.0070314487
255	0x3d141824	0.036155835

11.bias f4 [128]
0	0xbda0dfef	-0.07855212
1	0xbcfe4dde	-0.03104299
2	0xbd04cd85	-0.03242256
3	0xbde6f8e3	-0.1127794
4	0xbd74322d	-0.059618164
5	0xbc9a239d	-0.01881581
6	0xbdb11cf5	-0.08648101
7	0x3bf37045	0.007429155
8	0xbda421c4	-0.08014253
9	0x3d1aa571	0.037755433
10	0xbd3ecb7c	-0.046580777
11	0xbdab341d	-0.08359549
12	0xbdcc8b04	-0.099874526
13	0x3c888d31	0.016668888
14	0xbd15e360	-0.036593795
15	0xbd5990d0	-0.05311662
16	0xbaf6acde	-0.0018819829
17	0xbd101477	-0.035175767
18	0xbd8a7144	-0.06759885
19	0xbddfd420	-0.109291315
20	0xbdcce104	-0.10003856
21	0x3c1b6487	0.009484417
22	0xbd5675d5	-0.052358467
23	0xbc375aa1	-0.011191041
24	0xbac24ce7	-0.0014823944
25	0x3d2d428a	0.042299785
26	0xbd060450	-0.032718956
27	0xbd8e3fb9	-0.06945748
28	0x3d145d3e	0.036221735
29	0xbc523a95	-0.01283135
30	0xbdb00641	-0.08594943
31	0xbcd75534	-0.026285745
32	0xbdf9dca6	-0.122002885
33	0x3cfbc607	0.030734075
34	0xbd5cced6	-0.05390819
35	0xbcda4d25	-0.026648114
36	0xbdb10e34	-0.08645287
37	0xbd03bd51	-0.032162968
38	0xbd6f875c	-0.058478698
39	0xbc138005	-0.00900269
40	0xbcdaad46	-0.026693951
41	0xbd42b424	-0.047535077
42	0xbd473b6c	-0.048640653
43	0xbce8a0be	-0.02839696
44	0xbc05d405	-0.008168225
45	0x3ce233c9	0.027612584
46	0xbc35cc89	-0.011096128
47	0xbe07a1fb	-0.13245384
48	0xbe104d1d	-0.14091916
49	0xbd8e957b	-0.06962105
50	0xbbc00c2b	-0.0058608255
51	0xbdb02bf6	-0.08602135
52	0xbd542f8e	-0.051803164
53	0xbcd1ad82	-0.02559543
54	0xbab09b8c	-0.0013474091
55	0xbda5bb0f	-0.08092319
56	0xbd1e008e	-0.038574748
57	0xbb3c9db1	-0.0028780515
58	0xbdb18f6e	-0.08669935
59	0xbd9dba44	-0.07701543
60	0x3da8545b	0.082192145
61	0xbcaf82c2	-0.021424655
62	0xbd2c9926	-0.04213824
63	0xbc1c35cf	-0.009534313
64	0xbd54f1dd	-0.05198847
65	0xbc283d32	-0.010268496
66	0xbda830b3	-0.08212414
67	0x3b92b524	0.00447716
68	0x3c9d1274	0.019173838
69	0xbcf55218	-0.029946372
70	0xbdaca961	-0.08430744
71	0xbbf9213b	-0.0076028383
72	0xbbce783b	-0.0063009537
73	0xbda7a2d4	-0.08185354
74	0xbcccff12	-0.02502397
75	0xbda48cc2	-0.0803466
76	0xbdc00b27	-0.09377127
77	0xbd12578a	-0.035728015
78	0x3c821e3e	0.015883561
79	0xbe04f875	-0.12985404
80	0xbbdfb137	-0.0068265456
81	0xbb5d19d9	-0.003373733
82	0x3a88d4ed	0.0010439433
83	0xbbb8bf18	-0.0056380145
84	0xbe02054e	-0.12697336
85	0xbdab3984	-0.083605796
86	0xbdb1cb24	-0.08681324
87	0xbd169ddf	-0.03677165
88	0xbcfbb019	-0.030723618
89	0xbd103404	-0.035205856
90	0xbdd373d7	-0.10324829
91	0x3c6b399d	0.014356998
92	0x3d77467d	0.060369957
93	0xbc135c7e	-0.00899422
94	0xbd6af5ef	-0.057363447
95	0xbdf55fad	-0.11981139
96	0x3c1dd8e9	0.009634235
97	0xbcc95b18	-0.02457957
98	0xbd21807d	-0.039429177
99	0xbd42b533	-0.047536086
100	0xbdc0c6d2	-0.09412922
101	0xbe1fef8d	-0.15618725
102	0x3cff17f7	0.031139357
103	0xbda2959e	-0.079386935
104	0xbcfa54c0	-0.03055799
105	0x3bde88b5	0.006791199
106	0xbc7cbfb6	-0.015426567
107	0xbd5f41b0	-0.054506004
108	0xbdcef6f0	-0.10105693
109	0xbcbb3514	-0.022852458
110	0xbd36aace	-0.044596486
111	0xbd0f1892	-0.03493554
112	0xbdb9b924	-0.09068516
113	0xbbce4851	-0.006295242
114	0xbd074e04	-0.033033386
115	0xbdaf9f3e	-0.08575295
116	0xbd92f853	-0.0717627
117	0x3d327886	0.04357197
118	0xb7869ee0	-1.6048027e-05
119	0xbd52193b	-0.051293593
120	0xbd440a9e	-0.047861688
121	0xbd01f88e	-0.03173118
122	0xbd81d8d7	-0.06340187
123	0xbd2a59b3	-0.04158945
124	0xbda71cbd	-0.08159778
125	0xbc9e20fe	-0.019302841
126	0xbd660ed5	-0.05616649
127	0xbc9ccc05	-0.019140253

13.weight f4 [10, 128]
0	0xbcc91f20	-0.024550974
1	0xbc9528ab	-0.018207869
2	0x3d336140	0.043793917
3	0x3c6194f5	0.013768424
4	0x3dcfb9aa	0.101428345
5	0xbdad2601	-0.08454514
6	0xbe029786	-0.12753114
7	0xbe038d0a	-0.12846771
8	0xbdb9f8c4	-0.090806514
9	0xbe12bac2	-0.14329055
10	0x3cdaf9f7	0.02673052
11	0x3de49592	0.11161341
12	0xbe64d357	-0.22346245
13	0xbdbba5a8	-0.09162456
14	0xbe113a13	-0.1418231
15	0x3de618b2	0.11235179
16	0xbdaf6698	-0.0856449
17	0x3bbc5d43	0.0057484224
18	0xbe23b59b	-0.15987246
19	0x3db6500d	0.08901987
20	0x3c881c0d	0.016614938
21	0x3c84c920	0.016209185
22	0x3c3b74b6	0.0114414
23	0xbc88a97b	-0.016682377
24	0x3d54d387	0.05195954
25	0x3d2a5aee	0.041590624
26	0xbd26d41f	-0.04072964
27	0xbc1da22f	-0.009621187
28	0xbdac9bfe	-0.08428191
29	0x3d2f002f	0.042724784
30	0xbdac82f8	-0.08423418
31	0xbe02d9f2	-0.12778452
32	0x3cc2b0b7	0.023765905
33	0xbda6d648	-0.0814634
34	0x3d94b962	0.072619215
35	0xbc3f78e1	-0.011686535
36	0xbe13df1d	-0.1444058
37	0x3da4a1da	0.08038683
38	0xbd430298	-0.047609895
39	0xbdd3c9e6	-0.103412434
40	0xbcd6309e	-0.02614623
41	0x3d95f84d	0.0732275
42	0x3dba0739	0.09083409
43	0x3db1822d	0.08667407
44	0xbdee72e5	-0.11643008
45	0xbcb69208	-0.02228643
46	0xbe253159	-0.16132106
47	0xbe09c3d1	-0.13453604
48	0x3c443712	0.01197602
49	0x3d1788ff	0.036995884
50	0x3ddb424f	0.10706007
51	0x3dc3c8c8	0.0955978
52	0xbdd4da2a	-0.10393174
53	0xbd42d970	-0.047570646
54	0x3ddfb7e1	0.10923744
55	0xbce2adbd	-0.027670735
56	0xbc338225	-0.010956322
57	0xbe00f423	-0.12593131
58	0x3dfd7ef6	0.123777315
59	0xbdcf022e	-0.101078376
60	0x3d467adf	0.048457023
61	0xbd0e2a6c	-0.034708425
62	0xbd62b2fa	-0.055346467
63	0xbe0ef52b	-0.13960712
64	0xba046790	-0.00050508324
65	0x3d926edd	0.07150052
66	0x3dc140f6	0.094362184
67	0xbdf9ae0c	-0.121914
68	0xbe159f88	-0.14611638
69	0x3dbd896d	0.092547275
70	0xbde763c0	-0.11298323
71	0x3dae9cd4	0.08526006
72	0x3e0e1044	0.13873392
73	0xbe4658c9	-0.19369806
74	0xbd296b45	-0.041362066
75	0x3dce83f4	0.10083762
76	0x3d9d72f1	0.07687939
77	0x3dc40dc9	0.09572942
78	0xbe0cfd35	-0.13768466
79	0x3d0b2b24	0.03397669
80	0xbde799aa	-0.11308606
81	0x3ce4127e	0.027840849
82	0xbddd8239	-0.108158536
83	0x3cc99cd5	0.024610916
84	0xbbb8ee08	-0.00564361
85	0xbe0780b4	-0.1323269
86	0x3d88075e	0.0664203
87	0x3dea06e6	0.11427097
88	0x3d8e38d9	0.069444366
89	0x3d1b8996	0.03797301
90	0xbce0c6f8	-0.027438626
91	0xb9dffed5	-0.0004272374
92	0xbe438f8a	-0.19097725
93	0xbd883a22	-0.06651713
94	0x3dd8de2a	0.105892494
95	0xbda74f28	-0.08169395
96	0xbd5832da	-0.05278287
97	0xbdc13278	-0.09433454
98	0xbdbaa831	-0.09114111
99	0x3b59e139	0.0033245815
100	0x3d8c84e1	0.06861282
101	0xbde9a8c6	-0.11409144
102	0x3d3e0769	0.046393786
103	0x3d05c47c	0.032658085
104	0x3d218320	0.03943169
105	0xbe689361	-0.2271247
106	0x3d7e83ce	0.062137417
107	0x3d7c380f	0.0615769
108	0xbe1bf6d3	-0.15230875
109	0x3dad2740	0.08454752
110	0x3dcc9014	0.09988418
111	0xbd8178d1	-0.06321872
112	0xbe4087cb	-0.18801801
113	0xbe1b75ed	-0.15181704
114	0x3d7bbcf5	0.0614595
115	0xbd06305a	-0.032760955
116	0xbe2c7de1	-0.16844894
117	0x3d85b395	0.06528393
118	0xbe26a187	-0.16272555
119	0xbd51217e	-0.05105733
120	0x3dbd7251	0.0925032
121	0x3da52664	0.08063963
122	0xbe4da8df	-0.2008395
123	0xbe0772cc	-0.13227385
124	0xbdf4616f	-0.119326465
125	0xbe147db7	-0.14501081
126	0x3e1084f4	0.14113218
127	0x3d838f2e	0.06423794
128	0x3d2f7c95	0.04284342
129	0xbd99a789	-0.07502658
130	0x3ce9362d	0.028468216
131	0xbe023226	-0.12714443
132	0x3dc0d9a8	0.09416515
133	0x3d0aff11	0.033934657
134	0xbdc01d8f	-0.09380638
135	0x3dccff0d	0.100095846
136	0x3cf87032	0.030326936
137	0x3d6c5a5e	0.05770337
138	0xbe24c4b7	-0.16090666
139	0xbccf3336	-0.025292974
140	0xbd975840	-0.07389879
141	0xbe084215	-0.13306458
142	0xbd7945f2	-0.06085772
143	0xbd644164	-0.055726424
144	0x3cf4b34d	0.029870654
145	0xbd320219	-0.04345903
146	0x3d20a844	0.03922297
147	0x3db628a3	0.088944696
148	0xbe0477f8	-0.1293639
149	0xbd872135	-0.065981306
150	0xbdd0a723	-0.10188129
151	0xbd387bb6	-0.045039855
152	0x3d693268	0.056932837
153	0xbcec49ed	-0.028843844
154	0xbd982df9	-0.074306436
155	0x3c28b8f7	0.010298005
156	0x3cef77e4	0.029231973
157	0x3d213b22	0.039363034
158	0x3d3e5039	0.046463225
159	0xbddf7400	-0.10910797
160	0xbd25ddaf	-0.040494617
161	0x3e1384ff	0.14406203
162	0xbe592dd6	-0.21208891
163	0x3cb36f10	0.021903545
164	0x3daf391a	0.08555813
165	0xbdb8e718	-0.09028453
166	0x3ce94f4b	0.028480193
167	0x3dae5f90	0.08514321
168	0xbd423c82	-0.047420986
169	0xbbdd8fdb	-0.0067615337
170	0x3e0346e6	0.12820014
171	0xbd38a930	-0.045083225
172	0xbc72eac7	-0.014826483
173	0x3da86f27	0.082243256
174	0xbd841f57	-0.0645129
175	0x3dbd197f	0.092333786
176	0x3cc68da5	0.024237463
177	0x3dafca0f	0.085834615
178	0xbdcd8e00	-0.1003685
179	0x3d7696e6	0.0602025
180	0x3ca1db4f	0.019757895
181	0x3bac09aa	0.0052501755
182	0xbc762ecd	-0.015025807
183	0x3da06828	0.07832366
184	0xbdb3a41f	-0.08771538
185	0x3c8e4c54	0.01737038
186	0x3db440d3	0.08801427
187	0x3a38de2e	0.00070521503
188	0x3c5427ca	0.01294894
189	0x3dbcafe4	0.09213236
190	0x3d4cf29c	0.050036058
191	0x3dc7d2f1	0.09757031
192	0x3c3e971c	0.011632707
193	0x3c73c61a	0.014878774
194	0x3d170c0f	0.036876734
195	0xbd5427ae	-0.051795654
196	0x3dab0d18	0.08352107
197	0x3d82f2e4	0.06393984
198	0xb8a851f8	-8.026132e-05
199	0xbe0c04ef	-0.13673757
200	0x3e07a783	0.13247494
201	0x3ba9da06	0.005183461
202	0xbe82a1b2	-0.2551399
203	0x3d975d60	0.07390857
204	0xbdbeb3d1	-0.09311641
205	0xbe0660a3	-0.13122801
206	0xbbbf15ae	-0.005831442
207	0xbe0306cc	-0.12795562
208	0xbe6713ca	-0.22566143
209	0xbdfbcfe0	-0.122955084
210	0xbe56a9b6	-0.20963177
211	0xbd99d45c	-0.075112075
212	0xbe2478a2	-0.16061643
213	0x3d888d84	0.06667617
214	0x3d084bac	0.03327529
215	0x3d42b9c3	0.047540437
216	0xbe3fe26e	-0.1873872
217	0xbc97f4af	-0.018549291
218	0x3d1499d2	0.036279507
219	0x3dbda5cd	0.092601396
220	0xbe0a20b1	-0.13489033
221	0xbbae0fec	-0.0053119566
222	0xbd562c7f	-0.05228853
223	0x3dbcd9cd	0.0922123
224	0xbd264310	-0.0405913
225	0x3d777a50	0.06041938
226	0x3d9b489c	0.075822085
227	0x3deea317	0.11652201
228	0xbceeb188	-0.029137388
229	0xbe50502e	-0.20343086
230	0x3d1499af	0.036279377
231	0x3b9f42df	0.0048602666
232	0xbca6c708	-0.020358577
233	0x3e515255	0.20441563
234	0xbde897eb	-0.11357101
235	0xbcc8d69e	-0.0245164
236	0x3b052749	0.0020317605
237	0xbde15cce	-0.11004029
238	0xbd64b10d	-0.05583291
239	0x3d999dd5	0.07500807
240	0x3ce8fb0a	0.028440017
241	0x3c84832e	0.016175833
242	0xbda9c649	-0.08289773
243	0xbb7f66be	-0.0038971151
244	0x3c11d104	0.008899931
245	0xbd887a2f	-0.0666393
246	0x3dc4fbe4	0.09618357
247	0xbd135f87	-0.035979774
248	0x3c532c5d	0.012888995
249	0xbdf567a6	-0.1198266
250	0xbdbeedf5	-0.093227305
251	0x3d905bad	0.07048736
252	0xbe239803	-0.15975957
253	0xbd043bcc	-0.03228359
254	0xbe243530	-0.16035914
255	0xbe12c4a2	-0.14332822

13.bias f4 [10]
0	0xbc6f5bfe	-0.014609335
1	0xbc9a6624	-0.018847533
2	0xbd653deb	-0.055967253
3	0x3de9ec30	0.11422002
4	0x3cb1f35b	0.021722486
5	0xbcac32a8	-0.021020249
6	0x3cfa5757	0.030559225
7	0x3d288b47	0.04114845
8	0x3dddf543	0.108377956
9	0xbda85321	-0.082189806
