models/regular_model_standard_cnn.pth (torch, 741796 bytes, 8 tensors)

0.weight f4 [32, 1, 5, 5]
000000 46 73 05 3e 33 c5 11 be 88 d9 80 3e 94 13 f0 bd
       0.13032255 -0.14235382 0.25165963 -0.11722484
000010 04 ad 8d be c9 ca b4 3d 94 7b 69 be 57 9e 0d 3e
       -0.27671063 0.08827741 -0.22801048 0.13829933
000020 c7 53 43 bd bf da 8f bd 00 85 12 be ea e4 04 be
       -0.04768732 -0.070241444 -0.14308548 -0.12977949
000030 6a 3d 43 be 9b 80 f2 bd c3 9f 84 3e 6f af ac 3d
       -0.19066396 -0.11840936 0.2590314 0.08431899
000040 28 00 76 3e ae b7 e4 3d e2 09 98 3e 4a 1d a1 3d
       0.24023497 0.111678466 0.2969504 0.078669146
000050 6d 03 07 bd b4 b0 22 3e 46 c2 86 bd 88 c4 2b be
       -0.03296225 0.1588772 -0.065800235 -0.1677419
000060 4d 5e 19 be f6 d1 df bd 03 23 3a be 3a 07 33 3c
       -0.14977379 -0.10928719 -0.18177418 0.010927016
000070 60 a2 95 3d 38 39 fd 3d ea 20 68 be 81 e4 98 3c
       0.07306361 0.12364429 -0.22668806 0.018663647
000080 9e 4b 69 be 86 bf d9 bc 91 66 07 3e 2f 3b 8a be
       -0.22782752 -0.026580583 0.1322272 -0.26998278
000090 e2 b6 54 be 98 27 0f 3d eb 55 09 3e 6f 6a 17 3e
       -0.2077289 0.03494987 0.13411681 0.14786695
0000a0 0d a0 20 be 1d 5f e6 bd 33 1f 15 3d b7 18 14 3e
       -0.15686055 -0.1124861 0.036406707 0.14462553
0000b0 ee 1f 48 3d e8 de cb 3d e0 ea 5c bd 7c 43 8e 3e
       0.048858576 0.09954625 -0.05393493 0.27785861
0000c0 77 0e 60 bb ee 60 22 3a 53 5f f5 bd 83 8b 56 3d
       -0.003418831 0.0006194253 -0.11981072 0.052379142
0000d0 75 a8 55 3e 9e 8f 2f be 54 73 40 be a2 5e 54 3d
       0.20865043 -0.1714463 -0.18793994 0.05184806
0000e0 ea bc f8 3d dc 33 a0 3c 79 95 e5 3d 69 c8 8a be
       0.121454075 0.019555978 0.1121015 -0.27106026
0000f0 f7 4c 02 3b 5b a9 26 3d 06 c0 e8 3d d1 fe ae 3c
       0.00198823 0.040688854 0.113647506 0.02136174
000100 08 c9 2a be 49 dc 53 3d e1 93 c8 3d f8 90 18 3e
       -0.1667825 0.051723752 0.09793831 0.14899051
000110 37 c5 d1 3d 46 36 5b be ac 44 91 bd 56 8c 19 3e
       0.10242694 -0.21407422 -0.07093176 0.1499494
000120 f1 5c 83 3c e8 d1 4b be 5b 14 8f be 94 9c bd 3e
       0.016035529 -0.19904292 -0.27945217 0.37033522
000130 11 9f 89 3e 06 db c3 3d b6 26 33 3d 7a 32 93 be
       0.2687917 0.0956326 0.04373809 -0.28749448
000140 46 73 28 3e 5e b9 c4 3e 2c 39 46 be 53 7c 0e bf
       0.16450223 0.38422674 -0.19357747 -0.55658454
000150 22 ed 87 be 28 45 3b 3e 1d f8 47 be e3 08 1a bf
       -0.26548105 0.182881 -0.19528241 -0.6016981
000160 d8 c4 08 bf 64 3e 5b 3d 1b 47 7a bd a7 d7 50 bf
       -0.5342536 0.053526297 -0.061102968 -0.8157906
000170 db 71 0f bf 20 99 a2 bd e1 97 b6 3e 7c 83 01 bf
       -0.56033105 -0.079393625 0.3566275 -0.50591254
000180 33 25 d1 be 7b 04 13 3d 59 fc b0 3e 4e 20 01 3f
       -0.40848693 0.035892945 0.34567526 0.5043992
000190 3b 98 fe bc cf 49 8a be 6e ae a3 3d 82 95 ba bd
       -0.031078449 -0.27009436 0.07992254 -0.091105476
0001a0 83 fb dc 3d f1 ef e0 bd 32 a7 51 be 5e 01 66 3e
       0.107901596 -0.10983265 -0.20473936 0.22461459
0001b0 42 1d bc 3e 53 27 c2 bd 3a d5 d8 3d b0 3b a1 3e
       0.36741072 -0.09480157 0.10587545 0.3149085
0001c0 de 6a a6 3e 69 94 20 3e 8b f6 66 be ce 24 e0 bd
       0.32503408 0.15681614 -0.22554986 -0.1094452
0001d0 e2 df 93 bd 1c 75 bd 3d f1 a3 84 be af 30 a6 be
       -0.07220437 0.092508525 -0.25906327 -0.32459018
0001e0 62 79 67 3d 16 5a 7c 3d 7f 2b 2e be 53 c1 63 be
       0.056512244 0.06160935 -0.1700878 -0.22241716
0001f0 10 45 f1 bd 77 65 c8 3d 13 73 86 3e 49 b1 f3 3d
       -0.11780751 0.09784978 0.2625967 0.11899049
000200 83 4d b2 be 9c e9 d2 3d a4 00 2a 3e 14 2a a5 3d
       -0.34824762 0.10298464 0.16601807 0.080646664
000210 7f f2 4c be cd 84 ea be 8d eb 36 3e fb cd aa bd
       -0.2001438 -0.45804444 0.17863293 -0.08340069
000220 fd 32 72 3d c0 b6 47 be 17 cb 46 be 42 ea a5 3e
       0.059130657 -0.19503307 -0.1941341 0.32405287
000230 df f9 5d 3d 83 b1 42 3e 49 98 4b bd 20 23 26 be
       0.054193374 0.19013028 -0.049705777 -0.16224337
000240 19 df 0a 3d e4 b7 af bd 08 d7 51 bd e5 94 46 bc
       0.03390417 -0.08579996 -0.05123046 -0.01212046
000250 2d 07 f3 3d 94 75 e1 3c 5b 4d 97 be 8d 89 e8 3d
       0.11866603 0.027521886 -0.29551205 0.11354361
000260 e4 cb 40 3e 37 51 9f 3e 20 c5 3a be 67 aa 9d be
       0.18827778 0.3111665 -0.1823926 -0.3079407
000270 48 91 0a be 7b 06 05 3e 99 2f b2 3e bd 93 6a bd
       -0.13531983 0.12990753 0.3480194 -0.0572698
000280 65 b9 ab be c8 c9 8c be 18 ca 3d 3e b0 e0 6c 3d
       -0.33539882 -0.27497697 0.18534124 0.057831466
000290 e4 ee 48 bb e1 bc 8f be 2b 6f 87 be be 1c 9a bd
       -0.0030659968 -0.2807379 -0.26452002 -0.075250134
0002a0 89 34 8d 3e 7e a9 86 3e 67 ce 43 be e7 a1 24 be
       0.27579144 0.26301187 -0.19121705 -0.16077386
0002b0 48 79 ef 3d 0a 81 60 3e df d9 ee bd e1 68 66 be
       0.116930544 0.21924224 -0.11662649 -0.22500946
0002c0 e2 f9 0f be 73 dd 20 be 2c 64 2a be b1 d4 e0 ba
       -0.14060166 -0.15709476 -0.16639775 -0.0017153231
0002d0 b6 50 a5 be 63 b7 a7 be 02 e8 54 3d 45 0d 5e 3d
       -0.3228814 -0.327571 0.051979072 0.054211874
0002e0 c5 3f 9a 3d 7d 1c e8 3d 17 d1 08 3e f4 f9 d8 3b
       0.07531694 0.11333559 0.13361011 0.0066215936
0002f0 c3 0a 2e 3d f3 a5 3c be b0 f1 bd 3e 21 4a 45 3e
       0.042490732 -0.1842268 0.37098455 0.19266559
000300 14 35 14 3e c6 e1 25 be 37 4a c3 bd 00 39 e2 3b
       0.14473373 -0.16199407 -0.0953564 0.0069037676
000310 1d 3f 1f be 1d 9c f7 3b d5 15 13 3d 5e b0 07 3e
       -0.1555142 0.007556452 0.035909493 0.13250872
000320 fe 4c d5 bd 0a 0d ac bc 06 13 41 bd ec cf 88 3e
       -0.10415076 -0.021002311 -0.047137283 0.26721132
000330 3e 8d aa 3d a5 7d 4a 3e c7 55 19 3d e3 8d 9e 3d
       0.08327721 0.19774492 0.03743532 0.077419065
000340 94 cf 37 3e ce c2 a5 3e 41 80 49 3c 1c 8c 34 3e
       0.17950279 0.32375187 0.0122986445 0.17631572
000350 b0 bf 34 3e 1f 85 a5 bd 13 b1 df bd 25 65 65 be
       0.17651248 -0.080820315 -0.10922446 -0.22401865
000360 83 31 87 bd f6 bb 0f 3d dc 6b 84 be 50 8d dd b9
       -0.066012405 0.035091363 -0.2586354 -0.0004225769
000370 2a 3f 0b be 30 6b 84 be 1e 17 ac be c9 24 96 be
       -0.13598314 -0.25863028 -0.33611387 -0.2932494
000380 2f 4b f2 bd b2 03 15 be fd 30 71 3d d0 ea 90 3d
       -0.118307464 -0.14552191 0.05888461 0.07076037
000390 72 59 be bd 8b 59 e8 3a d2 f9 03 bd fc 1f e2 3d
       -0.09294404 0.0017726881 -0.03222067 0.11041257
0003a0 b1 85 81 3e 55 56 be 3d af f5 97 be f1 fe 2a 3e
       0.2529731 0.0929381 -0.2967963 0.16698815
0003b0 66 8d 95 3e fa d0 01 be 45 3a 42 bd 57 f2 4a be
       0.2920944 -0.12677374 -0.04741885 -0.19819008
0003c0 e9 9f 8a 3e b2 59 21 be ea 2d ac be 9c 8f b1 3d
       0.27075127 -0.15756872 -0.3362878 0.086699694
0003d0 88 72 b0 3b c7 43 13 3e 9f 06 87 be 37 cf a5 3d
       0.005384747 0.14381324 -0.2637224 0.08096164
0003e0 4d 5b f5 bd da 81 02 3e 48 e3 e7 bc cd 65 5f 3e
       -0.11980305 0.12744847 -0.028306618 0.21816178
0003f0 83 d8 45 be 45 67 b5 bd a6 52 d4 bd a9 ce 21 3e
       -0.19320874 -0.08857588 -0.103673264 0.15801491

0.bias f4 [32]
000000 2b ad 00 be bf 13 ea bd 0a a6 94 bd 59 df d6 3d
       -0.12566058 -0.114295475 -0.07258232 0.10491819
000010 72 75 d8 bc 5c 9e a5 bd c9 b9 9a bd d5 91 86 bc
       -0.02642319 -0.08086845 -0.07554967 -0.01642696
000020 72 46 e2 3d 3c 59 8c bd 52 71 3e bd 01 6c b1 bd
       0.110485926 -0.068529576 -0.04649479 -0.08663178
000030 24 c8 01 3e 78 06 4d be 5b b8 41 be d7 75 30 3d
       0.12674004 -0.20021999 -0.18917982 0.04308113
000040 f6 fc 37 be 67 fa 80 bc 4f a7 16 be 3f 66 bf 3d
       -0.1796759 -0.015744401 -0.1471226 0.09345674
000050 e2 30 b2 bd f5 2b 4c bd a1 40 c4 bb be b8 bd bc
       -0.0870073 -0.04984661 -0.0059891497 -0.023159381
000060 39 38 a9 3d 72 69 1b be f3 45 6c bd b7 34 fe bd
       0.08262677 -0.15176943 -0.057683896 -0.12412398
000070 d5 e1 a3 3b b8 40 5a bd 20 0b 8e 3b bb 24 98 3d
       0.0050012865 -0.053284377 0.0043348223 0.07428881

3.weight f4 [64, 32, 5, 5]
000000 5d 11 b6 3c 7f 37 63 bc d6 9f b6 bd cf 00 d9 bd
       0.022225076 -0.013868212 -0.08917205 -0.10595857
000010 a0 6e 40 be f0 6c c7 3c 93 ce 14 bd f3 0a e2 bc
       -0.187922 0.024343938 -0.036329817 -0.027593112
000020 66 3c 42 bd 4e 81 e8 bd 90 b3 8c bd 65 97 d7 3c
       -0.04742088 -0.11352788 -0.06870186 0.026317308
000030 cf 0e 5d bd a4 44 c6 bd 6f f4 ce 3c 11 40 e6 3c
       -0.0539692 -0.09681061 0.02526304 0.028106721
000040 13 9c 34 bd ae 1e e8 3d 31 58 fb 3d 8d 0d f8 3c
       -0.044094156 0.11333977 0.122726806 0.030279899
000050 e8 7a 87 3d e6 b2 59 3d cd 21 f3 3d 1b 0e d3 3c
       0.066152394 0.053149126 0.11871681 0.025763562
000060 79 a5 a1 bd b5 43 be bc e3 55 01 be 4e a3 1d bd
       -0.078928895 -0.023225645 -0.1263042 -0.038485818
000070 ca ed a9 bd 1c b3 e2 3c 1c 39 03 be a5 91 61 bd
       -0.08297308 0.027673297 -0.12814754 -0.055070538
000080 df e7 71 bb bd af f1 bd b7 f2 ff bc 82 d6 87 bd
       -0.0036911888 -0.118010975 -0.031243665 -0.06632711
000090 1b 23 eb ba 30 1f c6 bc 77 56 06 be c8 8a e3 38
       -0.0017939539 -0.024184793 -0.13118921 0.000108500535
0000a0 b5 5e b5 bd 8d 06 1a bd 2a cc aa 3d 48 ed 7c bb
       -0.088559546 -0.037603904 0.083397225 -0.003859358
0000b0 a1 ba 3a 3c bf 00 2f bc 4a c8 e6 3c 0a 5e 16 3e
       0.011397035 -0.01068133 0.028171677 0.1468431
0000c0 33 74 2b 3c 6e 17 e4 bd 93 b7 2d 3d 4b 9c 8e 3c
       0.010464716 -0.11137281 0.0424114 0.01740851
0000d0 de ef a4 bd 8d cb a6 bd db af e2 bd 8f ef 36 3d
       -0.080535635 -0.08144293 -0.11068698 0.044662055
0000e0 1c 9f 87 bd de bf ae bd 83 72 c6 3c 96 1e 08 be
       -0.066221446 -0.085326895 0.024224525 -0.13292918
0000f0 8b 85 2b 3d a8 35 1e bd 9d 1e 9a bd ae f8 3a 3d
       0.041875403 -0.03862539 -0.0752537 0.045647316
000100 56 e3 eb bc 77 18 30 3d de 4c c6 bc 40 37 ee 3c
       -0.028794926 0.04299208 -0.024206575 0.02907908
000110 f8 97 89 3d 9b a7 96 3c 81 d2 22 3d e9 65 06 bd
       0.06718439 0.018390467 0.039751533 -0.032812033
000120 af 03 b3 3c ea 8d 91 3d 47 5f f8 3c 99 19 43 be
       0.021852342 0.07107146 0.03031887 -0.19052733
000130 2b 4e 9a 3d 1a da 45 bd 29 86 5e be 00 45 99 bd
       0.075344406 -0.0483037 -0.21730866 -0.07483864
000140 5c 8a ef 3c 97 28 18 3e 60 b4 b9 bd 73 1e 40 be
       0.02924078 0.14859234 -0.09067607 -0.18761615
000150 ac 82 36 be 0a a9 7f 3e 08 54 4a bd d0 b1 15 3c
       -0.17823285 0.24966827 -0.049396545 0.009136632
000160 4b ea 0e 3d 2f 09 6c bd e3 17 32 bc d2 35 a3 bd
       0.034891408 -0.057625946 -0.010869953 -0.0796925
000170 0e 95 82 3d 17 8a 6f 3d 99 1b 05 be e8 26 32 be
       0.06376086 0.058481302 -0.12998809 -0.17397654
000180 26 4c 21 be 1a ad 8e 3c 0b 09 c4 3d 68 a8 e2 3c
       -0.15751705 0.017416526 0.09572037 0.027668193
000190 3e af 13 bd 10 73 14 bd 7d c8 be bd 45 f2 e7 bd
       -0.036055796 -0.036242545 -0.09315584 -0.11325506
0001a0 b7 8c 1e be f9 4e 0d bc f5 6a 68 3d 6e 01 e1 bd
       -0.15483366 -0.008624786 0.056742627 -0.10986601
0001b0 af 49 ca bd 4f 77 5d be a3 b1 bc bd 0b ab 96 bd
       -0.09877335 -0.21627544 -0.09213569 -0.073568426
0001c0 88 9d 8b bd c7 bf 18 bd d0 fc b0 bd b7 93 56 bb
       -0.06817156 -0.037292268 -0.0864197 -0.0032741854
0001d0 15 74 76 bd c8 c8 e5 bd 79 53 d8 3b 0b 96 98 bc
       -0.0601693 -0.112199366 0.0066017476 -0.018626234
0001e0 ed 54 75 3c 10 40 92 3c e6 0b 0a 3e ce 67 dc 3d
       0.014973861 0.017852813 0.13481101 0.10761987
0001f0 69 61 39 3d 5e d1 37 3d 6f 2a e8 3c 64 f1 7a 3d
       0.045258913 0.044877402 0.028340546 0.061265364
000200 e8 c6 df bd 88 53 2a bd 01 8c af 3a 41 b7 36 3d
       -0.1092661 -0.041583568 0.0013393165 0.04460836
000210 ce d8 46 bd 1e ff d4 bc a4 f6 cd bc ee c0 87 3d
       -0.048546605 -0.026000556 -0.025142021 0.06628595
000220 60 b5 ad 3d 58 a0 e8 bb 3a 26 83 3d c4 0b 5e 3d
       0.0848186 -0.0070991926 0.064037755 0.05421044
000230 fd a3 01 3e 2e 8e b3 3d b5 79 f0 3c 63 13 8a 3c
       0.12660213 0.08767353 0.02935491 0.016854947
000240 99 d7 f6 3c ae e6 06 3d ed 50 57 3d 9b 48 45 bd
       0.030132102 0.032934837 0.05256741 -0.048164945
000250 2d 4d ec 3c 9c 1b 2c 3d 70 86 fb bd 6a 0d c6 bd
       0.028845394 0.042018518 -0.12281501 -0.09670527
000260 55 0a b9 3c 6d 62 4a be 5b 32 f9 3d 86 8a 60 be
       0.022587935 -0.19764109 0.12167808 -0.21927842
000270 ce 82 44 3d c5 fd 6d 3d ec 54 38 be 79 46 be 3b
       0.047976308 0.05810334 -0.18001145 0.005806741
000280 65 f3 af bd 55 0a 8a bd 36 af ef 3d 02 a2 30 bd
       -0.08591346 -0.06740252 0.11703341 -0.043123253
000290 d8 34 c8 3c 52 13 cc bc 4e 3f 3f bc b9 f0 67 3e
       0.02443926 -0.024911556 -0.011672808 0.22650422
0002a0 8d f3 d1 3d 3d 37 23 3b f9 4e 5b 3e e3 5e 26 bd
       0.10251532 0.002490475 0.21416844 -0.040617835
0002b0 c7 ae c2 bb b0 cd 9f 3b ca 6e 12 be b3 7b 8f bb
       -0.0059412452 0.004876815 -0.14300075 -0.00437876
0002c0 dd 2d ec 3c eb 7e be bb dd 35 cd bc 89 6c 10 bd
       0.028830463 -0.0058134696 -0.025050098 -0.035259757
0002d0 c4 bb dc bd ec be c7 bd cb ba a1 bd 44 d7 ad 3d
       -0.10778001 -0.09753212 -0.07896956 0.08488324
0002e0 e6 3d d1 3c 9c 7d 7c be 6b 36 7f 3c 28 ac c5 3d
       0.02554221 -0.24657291 0.015576939 0.09651977
0002f0 e4 65 bc 3d 49 ca c4 bd c2 bb f5 bc ca 2e 4b 3d
       0.091991216 -0.09608895 -0.029996756 0.04960517
000300 82 a5 93 bc 91 31 c7 3c 6d b6 c1 3d 6b 0f c2 bd
       -0.018023256 0.024315627 0.09458623 -0.09475597
000310 e0 a6 56 3d 79 eb e7 3d c9 62 de 3d a5 48 6c 3c
       0.05240524 0.1132421 0.108586855 0.014421617
000320 dd 56 16 be 2a 56 12 be 98 8f b2 bd 32 e3 bb bc
       -0.14681573 -0.14290681 -0.087187946 -0.022935484
000330 be 5a a6 3c 29 15 7c bd 9b 5f 46 bc 9d da 52 bd
       0.020306941 -0.061543617 -0.012107755 -0.051478017
000340 d7 8a 34 be e3 f7 a4 bd 4a 8a 6a bd ae 41 1c bd
       -0.17631088 -0.08055093 -0.05726079 -0.038148575
000350 ce 6a 6f bd 88 fa 3a be c7 5d e7 bd b9 2a af bd
       -0.058451466 -0.18259633 -0.112971835 -0.085530706
000360 d1 0d 03 be 29 16 ca bd a5 60 23 be f1 b4 2c 3a
       -0.1279824 -0.09867508 -0.15954836 0.00065882417
000370 e3 59 0d bb 03 9f 09 bb da a6 20 3e f0 36 b3 3d
       -0.002156847 -0.002099932 0.15688649 0.08750713
000380 e9 bf b7 3d 28 38 06 3d 47 05 10 3c 67 a4 2e bb
       0.08972151 0.0327684 0.008790321 -0.0026648284
000390 9b d4 bd bd 74 48 eb bd 61 1f c5 3d 80 fe 64 bc
       -0.09269067 -0.11488429 0.09625126 -0.013976693
0003a0 e2 17 4f bd f0 6c 99 bd 01 cb f4 bd 29 12 f3 3c
       -0.050559886 -0.07491481 -0.119527824 0.029671745
0003b0 c8 d0 07 bd 70 23 a3 bd 7a 4a 7b 3d b9 10 b1 bd
       -0.033158094 -0.079657435 0.061350323 -0.08645768
0003c0 6e 92 53 bd e8 84 c1 3d 3b 78 75 bd 43 54 4a 3d
       -0.051653318 0.09449178 -0.059929114 0.049396764
0003d0 d1 0b 0d 3d 44 96 4b bd f4 86 79 bd 00 0f 40 3b
       0.034435097 -0.04970385 -0.060919717 0.0029305816
0003e0 75 a1 d0 3d bb f0 cf 3c 24 eb 9f bb 18 b2 0e 3d
       0.101870455 0.025383344 -0.004880326 0.034837812
0003f0 2b 52 d8 3c 19 f5 b0 bd 11 9c 0b be 38 16 b6 bd
       0.026406368 -0.08640499 -0.13633753 -0.08890957

3.bias f4 [64]
000000 46 64 1f bc 17 db 80 bd b0 09 f2 bc bd 79 c7 3b
       -0.009728497 -0.06291788 -0.029545635 0.0060875104
000010 ed cb 1f 3c ae 58 ee bc 23 66 3c bd 73 b3 5e 3c
       0.00975321 -0.02909502 -0.045995843 0.013592589
000020 d5 7c f1 bc c8 0b 35 bc a9 98 4f bd 33 f4 c4 bd
       -0.02947847 -0.011050172 -0.050682697 -0.0961689
000030 17 63 f4 bb 6f 84 49 bd 93 a6 1c bd 95 f1 ff bc
       -0.0074581015 -0.049198564 -0.038244795 -0.031243125
000040 73 a4 1b bd 55 61 ab 3c c5 72 1a 3b 6f ef a2 bc
       -0.037998628 0.020920435 0.0023566943 -0.019889561
000050 00 5c 6a bd 5a 76 10 bd 1f 51 50 bc fe d6 0c 3c
       -0.057216644 -0.03526912 -0.012714653 0.00859618
000060 35 23 fe bc cf 3e d3 bb 3a 99 12 bc 20 f5 1e bd
       -0.031022647 -0.0064466964 -0.008947665 -0.03880799
000070 c8 6b 11 bd 23 80 dc bc 24 41 60 bd 27 88 00 bd
       -0.03550318 -0.02691657 -0.054749623 -0.031379845
000080 d5 38 b2 3b 1f 8a ea bc b2 0f 29 bd 33 60 77 bd
       0.005438904 -0.028630314 -0.041274734 -0.060394477
000090 32 1e 0e bd 94 4c 23 3d 1a f4 32 bd 5c 4f 1a bd
       -0.034696765 0.039867952 -0.043689825 -0.03767334
0000a0 36 a7 9d bc ef c7 08 bd 21 a4 37 3d 39 2c 9f bb
       -0.019244771 -0.033393797 0.04483426 -0.0048575667
0000b0 36 89 8c bc 9a 6b fb bc c1 68 94 3c eb 60 47 3c
       -0.017155271 -0.030690957 0.018116357 0.012169103
0000c0 72 af 58 bd 75 7d 65 bb a6 a0 e5 bc 0c a8 7f bc
       -0.052901693 -0.0035017405 -0.028030705 -0.01560403
0000d0 4f 87 76 bd bf de a9 bc 20 d2 23 3c a8 ef 2b 3d
       -0.060187634 -0.020736096 0.009998828 0.0419766
0000e0 05 97 8a 3d 03 4d bd 3c 1a 89 b4 3b 89 bc cf bb
       0.06767086 0.023108011 0.005509508 -0.006339614
0000f0 53 65 6f bd 07 70 d5 bc 18 50 f6 bc 09 2c 87 bb
       -0.05844624 -0.026054395 -0.030067489 -0.0041251224

7.weight f4 [128, 1024]
000000 3a b9 31 3c cd 4e 6f 3d 75 ea c2 3c 84 93 93 3c
       0.010847384 0.05842476 0.023793438 0.018014677
000010 7f 0f 92 bd 4f ca 92 bd 95 6c fc 3d da c4 2a bd
       -0.07131862 -0.071674936 0.12325398 -0.04169164
000020 64 32 13 be ff 82 1e bd 1f 0c 38 bc 9f ea dd bc
       -0.14374691 -0.038699146 -0.011233359 -0.027089415
000030 26 cb ee bd d2 28 ff 3b 41 2f 41 be 8a 95 8c bd
       -0.11659841 0.0077868486 -0.18865682 -0.0686446
000040 87 6a 15 3d 7e 24 6e bd 82 89 37 bd 6c 87 08 3e
       0.036478546 -0.05814027 -0.044808872 0.1333291
000050 ba 51 05 3d eb a2 6d bd e9 41 b0 3c 35 68 c6 3d
       0.032548644 -0.0580167 0.021515803 0.09687845
000060 93 e7 01 3d 23 46 c9 3d 07 ed f1 3c 3a ee 1a 3d
       0.031714987 0.09827831 0.029531969 0.037824847
000070 21 d0 6a bd 23 94 09 bd f0 60 d4 bd ff 2e 25 be
       -0.057327393 -0.03358854 -0.10370052 -0.16131209
000080 64 ff 0d be 8a 37 af bd e5 a6 71 bd 46 e9 99 bc
       -0.13866955 -0.08555515 -0.058997054 -0.018787991
000090 0c 63 ff ba 59 1b 79 3d 89 48 95 bc a9 c3 5a bd
       -0.0019484474 0.060817096 -0.018223064 -0.053409252
0000a0 86 50 13 3a af 82 2e bd d6 c9 0f bd 1f 75 08 3a
       0.0005619604 -0.0426051 -0.035104595 0.00052054407
0000b0 7b 11 41 3d bb ba 03 3d 9b 26 b8 3d e0 ef 31 bc
       0.04713581 0.032160502 0.089917384 -0.010860413
0000c0 ed 6f 7f 3d 58 7a 60 bd 93 a5 85 bd 57 51 3f bd
       0.0623626 -0.054804176 -0.065257214 -0.04670843
0000d0 f8 7c 9c ba 9b 2a b5 3d 37 12 8a 3c 16 57 20 bd
       -0.0011939099 0.08846017 0.016854389 -0.03914555
0000e0 95 af e9 bd 52 33 d9 3c ee e5 10 3d 36 b5 0f 3d
       -0.11410443 0.02651373 0.035375528 0.035084926
0000f0 70 35 30 bd 1e 36 a6 3d 83 e0 ad 3d a0 d2 fc bd
       -0.043019712 0.08115791 0.08490088 -0.12344861
000100 07 5f 26 bd 69 7c dd bc 97 1b 8a bb e3 55 91 3d
       -0.04061797 -0.027036862 -0.0042147147 0.0709646
000110 76 4f f6 3b 41 60 c5 bc d6 c8 7a bd d8 85 13 3e
       0.0075167967 -0.024093749 -0.06122669 0.14406526
000120 c0 77 d3 bb 4d 18 10 3c 55 23 96 3c 97 8c e2 3c
       -0.0064534843 0.008794856 0.018327395 0.02765493
000130 7b 28 0b 3d b2 15 92 3d 41 67 88 3c 33 6d a8 3d
       0.033974152 0.07133044 0.016650798 0.08223953
000140 0e 5e 4f 3d b9 b9 96 3b 51 a3 c0 bd 3b 95 1d be
       0.050626807 0.0045997766 -0.0940615 -0.15388958
000150 15 1b 23 3e 72 fa 88 3d 2e 1b ae bc 95 41 6b 3c
       0.159283 0.06688394 -0.021253195 0.014358898
000160 57 2a 2e bd 45 65 3a bd a8 c4 32 39 c8 4c 8a bc
       -0.042520847 -0.045506734 0.00017048663 -0.016882315
000170 fe 7d cc bd 0e d8 9f bd a2 81 48 bd 15 b0 90 3c
       -0.099849686 -0.07804881 -0.048951752 0.017662087
000180 68 49 fc bd 28 17 d8 bd 49 bc f8 bd b0 aa e4 bd
       -0.12318689 -0.10551292 -0.121452875 -0.111653686
000190 29 1d 1c 3e fb 9f f6 3a 32 0c 42 bd 76 a6 43 ba
       0.15245499 0.0018815988 -0.04737491 -0.0007463464
0001a0 8b df 68 3d 7f 03 5f bd 8b 98 d4 ba 69 f5 a3 3d
       0.056853812 -0.054446694 -0.0016219778 0.08005793
0001b0 0c c0 52 bc c4 b9 88 3b 36 23 16 3d d5 42 f1 3c
       -0.01286317 0.0041725356 0.036654674 0.029450813
0001c0 0a ce 23 3d 52 25 b1 3d 51 c0 03 3e b9 f2 52 3e
       0.039991416 0.086496964 0.12866332 0.20600404
0001d0 f9 1b c9 bc fd 5a 93 3c f5 92 ea 3d fe 19 7a 3d
       -0.024549471 0.017987723 0.11453811 0.061059944
0001e0 c7 fe 6d bd cf 47 a9 bd 7b 72 3f 3d 11 62 76 3d
       -0.058104303 -0.082656495 0.046740036 0.060152117
0001f0 73 9b a0 bd 6c a4 06 3c 37 56 81 bd 0f ba 11 be
       -0.078421496 0.008217912 -0.06315272 -0.14231132
000200 95 ca 02 3e b8 07 0f 3e bf 23 2f 3c 8e 7a 20 3d
       0.12772591 0.13967788 0.010689675 0.039179377
000210 b8 4e 54 bd 32 7f 93 bb 19 3d 1d bd 3b 25 b9 3c
       -0.051832885 -0.004501247 -0.038388345 0.02260076
000220 f5 26 14 3d 88 46 01 3d f7 1b 9c 3c 26 80 4e 3d
       0.036169965 0.031561404 0.019056303 0.05041518
000230 8c 76 1b 3d 5c 65 1c bd 85 ed 0c bd 5f b9 27 bd
       0.037954852 -0.0381826 -0.034406204 -0.040948268
000240 de 63 a1 bd 00 83 ed bd 54 f1 26 be be 16 b3 bd
       -0.07880376 -0.11597252 -0.16302997 -0.08744572
000250 9a fd 22 3d 4c bb 1a bc 58 46 90 bc 9c 87 c4 bc
       0.039792635 -0.009444069 -0.017611668 -0.023990445
000260 f4 54 b0 3d f6 13 fb 3d 30 79 11 bd 34 31 81 3d
       0.086099535 0.122596666 -0.035515964 0.06308213
000270 b3 73 e8 bc da 55 28 3c a9 7c 05 3d cb 72 87 3d
       -0.028375482 0.010274375 0.03258959 0.06613692
000280 93 13 d2 3d 5a 7e 4c bd 38 fe 47 be 3c 32 06 be
       0.1025764 -0.049925186 -0.1953057 -0.131051
000290 cc 06 0e 3e 72 6c 8b bc 3f d2 7d bc 69 65 74 3d
       0.1386978 -0.017019484 -0.015492021 0.059667025
0002a0 d8 67 6a 3d a1 bd c8 3b 32 88 a7 bc da 54 ef 3c
       0.05722794 0.006126121 -0.020450685 0.029215265
0002b0 14 bd ff bc 18 9f 40 bd 53 ca 6f bc b1 fb 20 3d
       -0.03121809 -0.047026724 -0.01463564 0.03930253
0002c0 e0 28 7b 3d 82 0f 59 3d 21 41 55 bd 7d 9b 67 bb
       0.06131828 0.052993305 -0.052064065 -0.003534048
0002d0 19 49 26 3d 88 67 2b 3d 44 c3 30 3c 27 fc 11 bd
       0.040597055 0.041846782 0.010788742 -0.03564086
0002e0 97 8a 78 3c a3 fa 3e 3d 06 8a 99 ba a7 62 62 3d
       0.015169761 0.046625745 -0.0011714108 0.055269863
0002f0 3e b6 96 3d 68 d2 c3 3c 92 d2 db b9 4c e0 3f bc
       0.07358979 0.02390404 -0.00041927822 -0.011711191
000300 34 23 a6 bc 98 3c 67 bc b8 60 eb 3b 04 27 52 bc
       -0.020280458 -0.014113568 0.0071831606 -0.012826685
000310 08 a8 d9 3c 68 03 76 3b de 0f d0 bc d2 94 e3 bc
       0.026569381 0.0037538651 -0.025398191 -0.027780924
000320 66 60 d1 3c 55 fa 51 3c 42 eb c0 3c 1f 08 50 bb
       0.025558662 0.012816031 0.02354968 -0.0031743122
000330 f6 70 19 bc 31 6a 83 bc 09 69 97 3c 52 e2 03 3c
       -0.009365311 -0.016041847 0.018482702 0.008049564
000340 6c be 41 3d 99 87 48 3e 80 2e ce 3d 88 96 e3 3a
       0.04730074 0.19582976 0.10067463 0.0017363587
000350 88 53 43 b8 be 85 de bc fa bf 62 3c ad fc be 3b
       -4.6569417e-05 -0.027163383 0.013839716 0.005828461
000360 3c 5d b0 3c 24 71 98 3c d5 1b c7 bc 38 13 72 bd
       0.021528833 0.018608637 -0.024305264 -0.05910036
000370 d5 1a b0 3d b6 cd ca 3b e8 11 9a bd 48 b0 8b bd
       0.08598868 0.0061890734 -0.075229466 -0.06820732
000380 5f 87 fc bb a8 ba 44 bd 8a 54 40 bb 32 a2 b0 3a
       -0.007706567 -0.04802957 -0.0029347264 0.0013476072
000390 51 90 07 3e 5b af 9c 3d 6a 4a d5 bd a9 58 21 bd
       0.13238646 0.07650634 -0.10414584 -0.039391194
0003a0 14 d4 f6 3d 0c 01 cc bd bc d2 9a 3c 5c eb 2c 3d
       0.120521694 -0.09961137 0.018899314 0.042216644
0003b0 10 f7 93 bd 3a 44 6f 3c 08 ee c5 bc db 77 b9 bc
       -0.07224858 0.014603669 -0.024161354 -0.02264016
0003c0 e5 ab d8 3c 0c b1 88 bc 9c 4a 98 3c 0e 66 4d bb
       0.026449153 -0.016685985 0.018590264 -0.0031341347
0003d0 6f f2 c3 3d 29 e1 59 3d 1b 88 48 bd d8 89 93 3b
       0.09567725 0.053193245 -0.048957925 0.0045025162
0003e0 34 2e 84 3d 88 5a 44 3d 82 26 ee 3c 54 62 2d 3d
       0.06454125 0.0479379 0.029071096 0.0423301
0003f0 e4 2b e0 bc 37 91 f8 bc f0 03 91 bd ce c5 c5 bc
       -0.027364679 -0.030342681 -0.07080829 -0.024142172

7.bias f4 [128]
000000 da 0b c9 bc 4d 79 52 3d d5 e2 c8 3c 0b 8b 88 bc
       -0.024541784 0.051385213 0.024522224 -0.016667863
000010 ce b2 44 3c 32 3c a8 3d e0 4d af 3a 4b c7 d7 bc
       0.012005521 0.08214606 0.0013374649 -0.026340147
000020 6b 3f fc bc 9d a5 98 bc 4d 45 0c 3c 0c 81 f1 3c
       -0.030791959 -0.018633658 0.0085614445 0.02948048
000030 fb 8d 4a 3a 88 f5 ad 3c e7 3d 20 bc 49 10 d1 3c
       0.0007726845 0.021235242 -0.009780384 0.02552046
000040 e9 b2 6d bb d0 33 7c ba 22 60 f2 bb 7d 30 49 3d
       -0.003626997 -0.0009620758 -0.007396714 0.049118508
000050 6d 47 cf bb 5b 66 3f 3d cf e2 de bb 18 6b 02 3d
       -0.0063256533 0.046728473 -0.00680194 0.031840414
000060 8d 9b 9b bb 8a 79 e6 bc aa e8 ac bc 59 78 b4 bc
       -0.0047487677 -0.028134126 -0.021107037 -0.022030042
000070 dd a3 f1 bb da e8 c3 bc 3e 39 28 bc 8a 7a 65 3c
       -0.0073742704 -0.023914743 -0.010267554 0.014006266
000080 61 da 42 bd 7c 3b c1 bc c5 f5 e7 bb 20 7e 85 3a
       -0.047571544 -0.023587935 -0.0070788586 0.0010184683
000090 26 69 e3 bb 35 78 e4 3c 18 08 f2 bc c9 85 8f 3d
       -0.006940025 0.02788935 -0.029544875 0.07007939
0000a0 e9 45 b8 3c 8e 21 26 3d 16 a0 7a bc 01 fc 34 3c
       0.022494273 0.040559344 -0.0152969565 0.011046411
0000b0 84 e5 25 3d b2 6e 23 bc a3 28 21 3d 60 52 b7 bc
       0.040502086 -0.009975122 0.039345395 -0.022378147
0000c0 b4 54 cc 3c f9 33 5e bd fc be a7 3c ea 05 8c bb
       0.024942733 -0.054248784 0.02047681 -0.004273166
0000d0 65 ad 9a bc 1b 56 89 3d 11 bc 90 3c 8b 3a a6 bc
       -0.01888151 0.067058764 0.017667802 -0.020291587
0000e0 7e 7b 62 3a b0 1a 95 bc 34 54 0a bd f0 6c 7b 3c
       0.00086396176 -0.018201202 -0.03377171 0.015345797
0000f0 61 eb 61 bc a1 58 54 bd 58 6b 86 3c e3 97 12 bd
       -0.013789029 -0.051842336 0.016408607 -0.03578938
000100 b0 bb 98 3c ec 36 0d bd f2 be 1b bd 50 95 d7 b7
       0.018644184 -0.034476206 -0.038023897 -2.5699526e-05
000110 0f 83 f5 3c eb 68 04 3c 09 9a 78 3c 1e c1 0e bd
       0.02996972 0.008081655 0.015173444 -0.03485214
000120 f4 83 9e 3c 8d d7 9c 3c 42 2d 53 3c 73 fe 99 3b
       0.01935003 0.019145751 0.012889208 0.004699522
000130 6d 1b 16 bd 54 be 81 3d f2 ca f7 bc 21 9c ec 3b
       -0.03664725 0.0633513 -0.030248139 0.0072207605
000140 e7 96 c7 3c 38 bb ca bc 43 53 06 3c 77 ab 88 b9
       0.024363948 -0.024747476 0.008198562 -0.00026067693
000150 03 c2 c5 bc e8 2b 8f 3b dd 1a 21 3d 9e 9e 32 3d
       -0.024140364 0.0043692477 0.03933226 0.0436083
000160 5f a6 36 3c f9 f1 27 3d 48 27 bd bb ca 3f 62 bd
       0.011148064 0.041002247 -0.005772505 -0.055236615
000170 87 9a 88 3d de 03 4f 3c 70 2b 2c bc 11 8e c0 3b
       0.06670099 0.012635199 -0.010508403 0.0058763106
000180 88 ed 8d 3c 02 57 28 3d 7c 65 e8 3c 2a ea b1 3b
       0.017325178 0.041098602 0.028368704 0.005429526
000190 ac 75 21 bd c3 6a 87 3b 50 03 26 3c 43 47 0e bd
       -0.03941886 0.0041326 0.010132626 -0.03473593
0001a0 6f 69 bb bb 0f 9d 1b bc 5e 56 bb bc 63 58 1b 3d
       -0.005719356 -0.009497895 -0.022868332 0.03792609
0001b0 c6 8e 10 3b ea fa 88 3c a7 8c 0b 3d c8 32 af bc
       0.0022057756 0.016721208 0.034069683 -0.02138652
0001c0 84 a2 5c bd 0d ce d0 3c 67 b4 a9 ba e4 0a bb 3c
       -0.053865924 0.025488878 -0.0012947441 0.022832341
0001d0 47 63 22 3d 2e 3e ed 3b 55 40 b6 3c 5b 8e 75 bb
       0.03964546 0.0072400784 0.022247473 -0.0037468884
0001e0 75 af 46 3d 51 9b 2c 3d 97 50 87 3d 1d c6 c9 bc
       0.048507173 0.04214031 0.06607168 -0.0246306
0001f0 42 95 2b 3d 6d 3c 55 3d 8e 12 f9 38 f6 71 3f 3c
       0.04189039 0.05205958 0.00011876701 0.011684885

9.weight f4 [10, 128]
000000 e6 20 ac 3d af 85 11 bc 7b c7 81 3d 4c a2 43 bd
       0.084047124 -0.00888197 0.06336876 -0.0477622
000010 73 64 84 bb 3b 08 82 3d 4c 95 ea 3a 06 58 82 ba
       -0.004040295 0.06349226 0.0017897277 -0.0009944446
000020 38 5f ed bd 2f 0b 20 3d 4d 13 90 bd 93 b7 60 bd
       -0.11590427 0.039073166 -0.07034931 -0.05486257
000030 40 25 f8 bd ab d2 6d be e2 c8 23 be 2e b1 66 bd
       -0.1211648 -0.23224895 -0.159946 -0.056321315
000040 c2 a8 cc bd 18 5e 03 bc b1 c9 09 3e dd dd 29 bd
       -0.099931255 -0.008018039 0.13455845 -0.04147135
000050 e4 07 6d 3d 36 8c f4 3d 89 bb 57 bd 5a ef bd bd
       0.057868853 0.119408056 -0.05266908 -0.09274168
000060 dd 8f e0 3d 2b 65 02 bd 84 7e 82 3d 46 c0 19 bc
       0.1096494 -0.031834763 0.06371787 -0.0093842205
000070 e3 14 a3 3d 76 f4 88 bd d7 c3 29 be eb 37 e7 3b
       0.07962968 -0.06687252 -0.16578613 0.0070562265
000080 48 1e c8 3d 38 af b6 bd 63 12 1b be b4 26 b1 bd
       0.09771401 -0.08920139 -0.15143733 -0.0864996
000090 da 06 62 bc b2 0b b4 3d 0d ec cc b9 09 a0 ca 3d
       -0.013795579 0.08791293 -0.00039085784 0.098938055
0000a0 26 af de bd f4 24 85 3d 2d 6f 61 3c b5 43 42 be
       -0.10873251 0.06501189 0.0137594165 -0.1897114
0000b0 90 96 96 ba 57 77 86 3c c1 27 73 bd 3b 83 85 3d
       -0.0011488963 0.016414328 -0.059364084 0.06519171
0000c0 ed 2e 22 bc 58 f3 bd bd 58 e9 6d 3d e2 66 f2 3c
       -0.009898883 -0.0927493 0.058083862 0.029590074
0000d0 48 91 69 3d a1 9f c9 3d c6 14 1e be aa 4a 8a 3c
       0.057023317 0.098449 -0.15437612 0.016881306
0000e0 9f f9 d5 3d 31 1e 24 3d 35 d7 29 3d 8f 00 e4 3d
       0.10448002 0.040067855 0.041465003 0.11132919
0000f0 0c 12 83 bd 7b 2a 5e bd 59 93 87 3c 03 c6 f6 bd
       -0.063999265 -0.05423973 0.016549753 -0.120494865
000100 bb fd b9 3b 88 7c 2b bd 7b b7 60 3d 41 72 cd bd
       0.005675999 -0.04186681 0.05486248 -0.10031558
000110 c8 18 d2 3d 85 cc 35 be ea a0 f0 3d f4 c3 7e 3c
       0.10258633 -0.177538 0.11749442 0.015549649
000120 b0 e8 57 bd b2 ae a9 bc 7e 91 f6 bc 8b 33 70 be
       -0.052712142 -0.020713184 -0.030098673 -0.23457162
000130 7a 25 a2 bd e8 90 17 3e bb fb 1a bd 2b 26 d1 bc
       -0.07917304 0.14801371 -0.037837725 -0.025530895
000140 6d 73 23 bd 3a 42 35 bd 98 f6 79 3d 36 92 8c bd
       -0.039905 -0.04425261 0.061026186 -0.06863825
000150 d6 b3 f0 3d 3d 08 a4 3c 6d a8 81 be f2 34 df 3d
       0.11753051 0.02002346 -0.2532381 0.108987704
000160 37 6b 2b 3e ae 34 e7 bd 8e 2d 5a 3d 8f eb 7c bc
       0.16740118 -0.11289345 0.0532661 -0.015437021
000170 bc e9 21 3e ec 1f 9b 3d a5 d2 7e 3d 7a 47 54 3d
       0.15811819 0.07574448 0.062212605 0.051825978
000180 17 b0 22 3d c3 07 9c 3d 06 2c 35 bd da 6a ce 3c
       0.039718714 0.07618668 -0.044231437 0.025197435
000190 07 b8 87 bd 4b 64 b8 bd 2f 4d d7 bc 2d 79 5c 3c
       -0.06626897 -0.09003504 -0.026281921 0.013456625
0001a0 31 44 ca bc 0e 0a 2c bc 70 c4 07 3d ba b7 af 3d
       -0.02469072 -0.010500444 0.03314632 0.08579965
0001b0 d8 a0 6d bd 20 df 60 3c 16 80 26 3d 73 99 2b bd
       -0.05801472 0.013725072 0.040649496 -0.041894387
0001c0 26 bf 28 3d 14 c7 0a be 74 94 b4 bd 1e 42 d1 3d
       0.04119792 -0.13552505 -0.08817378 0.10217689
0001d0 02 42 ad be 09 da cc bd 95 b2 5e 3d 01 e3 29 be
       -0.33839422 -0.100025244 0.054369528 -0.16590501
0001e0 26 d2 d0 3d d8 5a 59 be d8 4f 79 3d 7e f2 1f 3c
       0.10196333 -0.2122606 0.06086716 0.0097624045
0001f0 f0 e7 a0 3c dc cc 8c bd 06 5a 89 3c 88 73 88 bd
       0.019641846 -0.06875011 0.01676656 -0.06662661
000200 fa 27 e3 ba 98 0b aa 3d 17 ff c9 bd ba db 3e be
       -0.001733064 0.083029926 -0.09863108 -0.18638507
000210 15 8c 2b 3d 9c fa 8c 3d 90 0f 05 bd 10 41 03 3d
       0.04188164 0.068837374 -0.032485545 0.03204447
000220 f2 88 94 3d 5d 7e 5d bd 57 5a e6 bb 09 38 41 bd
       0.07252683 -0.054075588 -0.0070298123 -0.04717258
000230 d5 b6 b5 3c ff c1 c0 3d b7 00 40 bd b7 32 66 3d
       0.022181908 0.09412002 -0.04687568 0.05620071
000240 ef dd 04 be c4 55 bc 3c 52 70 b2 bd 11 e6 12 be
       -0.12975286 0.022990115 -0.0871283 -0.14345576
000250 59 b8 1d bd 2e b0 18 be bd 52 ad bc 00 69 45 3d
       -0.038505886 -0.14910957 -0.021157617 0.04819584
000260 12 7e 01 3e 16 b6 a6 3d 60 5e c7 bd da 72 1b 3c
       0.12645748 0.08140199 -0.097347975 0.009487832
000270 a2 dc 31 be cd 66 ae bc 0f 0d 87 3c aa d6 fb 3d
       -0.17369321 -0.021289254 0.016485719 0.12296803
000280 53 8c 03 be 75 98 8c bd 25 9f 0b be 66 01 2d bb
       -0.12846498 -0.06865016 -0.13634928 -0.0026398539
000290 c0 ee 92 bc 21 6b 4f be bb ab 95 bd 78 ad 85 3d
       -0.01793611 -0.2025571 -0.073081456 0.06527227
0002a0 dd 36 08 3e 95 62 4d 3d 8d 77 48 3d ce 81 d5 bd
       0.13302179 0.050142843 0.048942138 -0.10425149
0002b0 45 3e 6e 3d ba 02 9a bd 36 e6 56 bd 14 a3 33 be
       0.058164854 -0.07520051 -0.05246564 -0.17542678
0002c0 39 75 d0 bc 11 e0 f7 3c 7f 76 64 bd 83 b1 05 bd
       -0.025446521 0.03025821 -0.05577707 -0.03263999
0002d0 a6 b9 8e 3d 62 10 3a 3d d5 8a 7c 3d 20 6b 1d bd
       0.069690034 0.04542578 0.061655838 -0.03843224
0002e0 c4 8b 30 be 69 14 c1 bc 84 49 32 3d 2a 18 ac bc
       -0.17240816 -0.023569303 0.04352714 -0.021007616
0002f0 ed 3c 9a 3d cb f3 e1 bc 82 b3 93 bd a3 0f 97 bc
       0.07531152 -0.02758207 -0.07211973 -0.018440073
000300 f1 8f 4f bc 2b 38 df bc 49 dd 04 3c da 47 4b bd
       -0.012668596 -0.027248463 0.008109399 -0.04962907
000310 b1 f1 1f 3d 5f e4 97 bd aa 94 cd bd 24 ca 55 ba
       0.039048854 -0.07416605 -0.10038121 -0.00081554265
000320 92 bb 12 bd 93 00 bb 3d 8f ce e8 bd 7f 9b 9c 3d
       -0.035823412 0.09130969 -0.11367523 0.07646846
000330 97 24 26 bd b2 3c 0f 3e 87 fc 87 bc 66 36 4d be
       -0.04056224 0.13987997 -0.016599907 -0.20040283
000340 69 aa f8 bd 0d f3 7c bd e5 14 85 3c 47 18 a3 bd
       -0.12141878 -0.06175523 0.016245315 -0.07963615
000350 c4 2b aa bd 10 c7 63 3c a7 e6 30 bd c1 2e 36 3d
       -0.08309129 0.013902441 -0.043188717 0.04447818
000360 82 69 8f bc b9 c8 1b be 8a 52 a3 3d 16 78 96 bd
       -0.017506365 -0.15213288 0.079747275 -0.07347123
000370 56 a0 67 3d 99 53 e8 bd e1 eb 04 3d 02 89 04 be
       0.056549393 -0.1134407 0.032451514 -0.1294289
000380 e2 6d 03 be 52 dc 84 bd 16 15 a5 bc cb 03 93 3d
       -0.12834886 -0.06487335 -0.020151656 0.07178458
000390 78 bd d9 3b f5 d9 ef 3d 10 a0 f9 3d b4 d7 0f 3d
       0.006644901 0.11711494 0.121887326 0.03511782
0003a0 6c d8 5b bd c6 0d 26 3d 68 fd 77 3e ba 50 17 3e
       -0.053673193 0.04054048 0.2421776 0.14776888
0003b0 f3 9b cf bd ca 4c 79 3d 1a 1f 95 3d 67 13 3b 3e
       -0.10137167 0.060864247 0.07281323 0.1826912
0003c0 39 4b 58 be c5 8b e9 3c 9c a0 bf bd 8a 6d 2b be
       -0.21122445 0.02850903 -0.09356806 -0.16741005
0003d0 55 e4 0d bd 82 05 1e be 17 e2 98 3d 06 5b ff 3d
       -0.034641583 -0.15431789 0.07464998 0.12468533
0003e0 d5 3a 6b be 90 b0 bf 3d 70 78 bb 3d d0 51 4f bc
       -0.22971661 0.093598485 0.09153831 -0.012653783
0003f0 c7 dc 9c 3d f8 ff 4f 3c 9f fa 52 bd 83 b2 84 bd
       0.076592974 0.012695305 -0.051508542 -0.06479361

9.bias f4 [10]
000000 bd f6 19 bd b7 4f 81 bc ea 18 2c bd a1 22 eb 3b
       -0.037588824 -0.015785081 -0.042015947 0.007175759
000010 52 05 8a 3d d8 61 01 bd ec 91 ae bc 63 36 71 3d
       0.06739296 -0.03158745 -0.021309815 0.058889758
000020 37 ed d9 3d 5e e3 31 bd
       0.10640948 -0.043429725
