models/regular_model_shallow_dnn.pth (torch, 409376 bytes, 4 tensors)

1.weight f4 [128, 784]
-0.000958183 0.025765356 -0.026615757 -0.03408558 -0.0148996245 0.02352837 -0.030156916 -0.019014547
0.002442773 0.0076734982 0.02320288 0.01503617 -0.0019685964 0.045542296 0.08833749 0.017604532
-0.032117344 -0.010609708 -0.015656246 -0.021896375 0.0005027099 0.033993736 -0.009924902 0.029576857
-0.034083657 -0.02337641 0.010086852 0.025673565 -0.02913878 -0.0054177814 -0.013241718 0.026535967
-0.012647422 0.014842684 0.104987174 0.07861596 0.08310339 0.0707364 0.07937303 0.18420166
0.14150855 0.10062038 -0.11949951 -0.02421933 0.22871226 0.17980954 -0.020745115 0.14672683
0.1358545 0.048434243 0.052012507 0.055893797 -0.029269233 0.022404544 -0.024588952 0.023644688
-0.031265527 0.027908156 0.01743941 0.1343852 0.121359505 0.02038499 0.050685994 0.14953914
0.17869595 0.25435057 0.351369 0.29282084 0.25302967 0.030687902 0.09011206 -0.024921209
-0.08433319 -0.115421556 -0.07861052 -0.08380329 -0.017236196 0.13525788 0.1395891 0.15876006
0.14889649 0.06330975 0.008476752 0.027469859 0.030930657 -0.035512134 -0.09990929 0.053910583
-0.08468391 0.0040095155 -0.017679188 -0.04912606 0.006299087 0.19917046 0.077569865 0.16720381
0.06650327 0.16599996 0.14162639 0.016958462 0.1124901 -0.04941693 -0.16364735 -0.11924141
-0.15385798 -0.030349024 -0.00047684807 0.12890695 0.0932283 -0.11739859 -0.017025623 0.014275858
0.030878954 -0.023693278 -0.11501577 -0.25088742 0.06478269 0.11747266 0.13798575 0.17067653
0.07035174 0.061798614 0.0202653 0.046166364 0.113238916 0.04978611 0.08009429 -0.002590194
0.07207329 0.12486891 0.02660664 -0.05912007 -0.021372156 -0.12354947 -0.055245254 -0.05954957
-0.04407671 -0.07656569 0.05504423 0.140707 -0.020946624 0.0029186395 -0.05927326 -0.13665146
0.04826753 -0.17627025 -0.082739554 -0.053177506 -0.13541666 -0.1898636 -0.07845081 -0.013692597
0.06474904 0.113472275 0.064766824 0.052871518 0.058455795 0.013388251 0.05719114 0.13873631
-0.0064122905 -0.052216165 -0.14854899 -0.15458365 -0.03620324 0.050306156 0.03432645 0.08269498
-0.016023735 -0.07550121 -0.12863587 -0.16051967 -0.039362643 -0.135973 -0.094695576 -0.048086133
-0.19572547 -0.16206065 -0.09072021 0.031014256 -0.015971117 0.0056347954 -0.024415359 0.017006133
0.074668646 0.044570155 0.06547907 0.01846117 0.0015611235 -0.0016346376 -0.015644006 -0.11243464
-0.10927695 -0.096816406 -0.119944 0.07283306 0.0036247326 -0.099567786 -0.07637297 -0.18826911
0.031597763 -0.08184405 0.028758574 -0.20263793 -0.20561704 -0.028649317 0.05613697 0.025397744
-0.04131557 -0.03796016 -0.08478565 0.054521438 0.09016282 0.11043778 0.11758664 0.13136737
0.04237156 0.08078432 0.08465349 -0.046789493 0.07498125 0.13085544 -0.14389548 0.05125307
0.044418555 -0.062243734 -0.018859843 -0.041252133 -0.011420639 -0.11460608 -0.0116653815 -0.08861507
-0.0383596 0.0036954267 0.08551433 0.019529706 -0.065024115 -0.026034318 -2.7195143e-05 0.039741144
0.0992857 0.10167845 0.08508524 0.15826578 0.06908274 0.10695822 0.0052865283 -0.059346024
-0.012910081 -0.010095113 0.008835659 -0.03083492 -0.035627548 -0.09920401 0.060537603 0.095340155
00000000: 932e 7bba de11 d33c 4a09 dabc 529d 0bbd
00000010: 8e1d 74bc 91be c03c a30b f7bc 65c4 9bbc
00000020: ee16 203b f871 fb3b f713 be3c 455a 763c
00000030: 9103 01bb 8f8a 3a3d 49ea b43d 6137 903c
00000040: 7a8d 03bd 57d4 2dbc 8741 80bc 0760 b3bc
00000050: 4ac8 033a 043d 0b3d 0e9c 22bc 2a4b f23c
00000060: 4e9b 0bbd e37f bfbc 5343 253c 5e51 d23c
00000070: 73b4 eebc a587 b1bb caf3 58bc f561 d93c
00000080: 2237 4fbc bb2e 733c 8403 d73d 6801 a13d
00000090: 1c32 aa3d 3fde 903d 548e a23d 5c9f 3c3e
000000a0: 9ee7 103e 0f12 ce3d 29bc f4bd 9e67 c6bc
000000b0: 8c33 6a3e fe1f 383e a9f1 a9bc 8f3f 163e
000000c0: 711d 0b3e fc62 463d 110b 553d e5f0 643d
000000d0: 08c6 efbc bc89 b73c c56e c9bc 81b2 c13c
000000e0: 4810 00bd a59f e43c 18dd 8e3c 469c 093e
000000f0: 558b f83d 6cfe a63c 1e9c 4f3d ca20 193e
00000100: 12fc 363e 3d3a 823e a3e6 b33e 9dec 953e
00000110: 1b8d 813e 3265 fb3c ac8c b83d 9027 ccbc
00000120: e1b6 acbd 2362 ecbd 8dfe a0bd 0fa1 abbd
00000130: ec32 8dbc 0b81 0a3e 72f0 0e3e ff91 223e
00000140: 5278 183e 8ba8 813d 13e2 0a3c 7808 e13c
00000150: 4a62 fd3c 2c75 11bd 3e9d ccbd 58d1 5c3d
00000160: c26e adbd 4162 833b f2d3 90bc 6838 49bd
00000170: 9268 ce3b 57f3 4b3e f3dc 9e3d 7a37 2b3e
00000180: de32 883d e5fb 293e 8206 113e 79ec 8a3c
00000190: 3661 e63d 6869 4abd 2c93 27be d734 f4bd
000001a0: f28c 1dbe 849e f8bc 7701 fab9 2f00 043e
000001b0: 7bee be3d ac6e f0bd 5279 8bbc 4ae5 693c
000001c0: dcf5 fc3c 6818 c2bc 638d ebbd 5174 80be
000001d0: c9ac 843d 8295 f03d 234c 0d3e d4c5 2e3e
000001e0: 9314 903d 8b20 7d3d 6a03 a63c f118 3d3d
000001f0: cee9 e73d 85ec 4b3d 7a08 a43d 3fc0 29bb
00000200: 299b 933d 45bb ff3d 2bf6 d93c e327 72bd
00000210: a914 afbc 8107 fdbd d948 62bd 40ea 73bd
00000220: c889 34bd 79ce 9cbd 0f76 613d 7f15 103e
00000230: 4198 abbc a546 3f3b 85c8 72bd 5cee 0bbe
00000240: 2cb4 453d 3080 34be 5b73 a9bd a8d0 59bd
00000250: aaaa 0abe 9b6b 42be d1aa a0bd ea56 60bc
00000260: 259b 843d 2764 e83d 78a4 843d ce8f 583d
00000270: 586f 6f3d 655a 5b3c 4241 6a3d e410 0e3e
00000280: 311e d2bb 9ee0 55bd 3a1d 18be 2d4b 1ebe
00000290: d949 14bd d40d 4e3d e499 0c3d fc5b a93d
000002a0: 3544 83bc 61a0 9abd 1fb9 03be 455f 24be
000002b0: b93a 21bd 823c 0bbe c1ef c1bd f7f5 44bd
000002c0: 426c 48be 3af3 25be 84cb b9bd 9c11 fe3c
000002d0: dcd5 82bc 17a4 b83b b802 c8bc 7250 8b3c
000002e0: e0eb 983d 328f 363d e419 863d e13b 973c
000002f0: 9d9e cc3a 5641 d6ba dc27 80bc 2244 e6bd
00000300: 98cc dfbd ae47 c6bd 33a5 f5bd 8029 953d
00000310: ec8c 6d3b 32ea cbbd 6f69 9cbd 9ec9 40be
00000320: a86c 013d da9d a7bd 1a97 eb3c 5180 4fbe
00000330: 468d 52be f9b1 eabc e1ef 653d ee0e d03c
00000340: 843a 29bd 1d7c 1bbd 19a4 adbd df51 5f3d
00000350: 49a7 b83d 342d e23d 44d1 f03d 2b85 063e
00000360: cd8d 2d3d 4072 a53d cf5e ad3d 57a6 3fbd
00000370: c58f 993d f8fe 053e 5659 13be bdee 513d
00000380: 3bf0 353d 49f3 7ebd f57f 9abc fff7 28bd
00000390: a21d 3bbc 98b6 eabd 2820 3fbc d17b b5bd
000003a0: f51e 1dbd f92e 723b 2322 af3d c3fc 9f3c
000003b0: 5d2b 85bd ec45 d5bc 2021 e4b7 9cc7 223d
000003c0: 4d56 cb3d cb3c d03d 2c41 ae3d 6d10 223e
000003d0: 407b 8d3d e90c db3d 9d3a ad3b d114 73bd
000003e0: ce84 53bc f965 25bc 71c3 103c 8499 fcbc
000003f0: 31ee 11bd 792b cbbd 47f6 773d b341 c33d

1.bias f4 [128]
-0.14952222 0.067409694 -0.16844928 -0.03418121 0.024975007 0.004420452 0.01391598 0.14586449
-0.11059852 -0.05828241 -0.020337068 -0.0088176625 0.08814811 -0.060571987 0.017396437 0.122308575
-0.043578792 -0.07359216 0.09712072 0.005079349 -0.03991706 -0.051656242 0.0046019405 0.10394029
0.08449006 0.07373426 0.09161848 -0.10495074 -0.029988043 0.0038269437 -0.08393148 -0.05948875
0.0011603532 -0.010645847 0.045229163 0.031310715 0.075458616 0.048185002 0.040579274 0.17818215
0.02618426 0.21597184 0.30774873 0.07453471 0.15472668 -0.10973948 -0.06010277 0.24509037
-0.029120296 -0.06298465 0.0064908196 0.008832452 0.09330853 0.025089292 0.1336242 -0.14406419
0.0683807 -0.09239159 0.05151931 0.10122714 0.19051217 0.014195644 0.09191062 -0.10867341
0.004199422 -0.049539357 0.09787408 0.19029336 0.15640152 -0.07938947 0.053123973 0.013371035
0.14129299 0.043438878 0.14880605 -0.06651664 0.06273238 0.015151616 0.0025587792 0.015767278
0.038964547 -0.041065402 0.13925278 0.029520942 0.072913475 -0.09981867 -0.054778513 -0.10508343
-0.08508742 0.006772508 0.16370255 0.16012952 0.038925886 0.08110884 -0.1807998 0.105490275
0.1940838 -0.008007824 0.16449822 0.057448514 0.10473427 0.117549 -0.17015342 0.07332872
-0.007178183 0.1253702 0.023204083 0.05045887 0.15999483 0.07905232 -0.026206 -0.0101014655
0.12741332 0.017607054 0.18199372 -0.14983517 0.13995694 0.11060152 0.10204737 0.026960123
0.1321213 0.105745986 0.022666926 0.17229772 0.038150072 0.15237215 0.09450503 0.009140377
00000000: 5a1c 19be 180e 8a3d f87d 2cbe 9901 0cbd
00000010: 6398 cc3c 70d9 903b daff 633c 805d 153e
00000020: 7a81 e2bd 89b9 6ebd ec99 a6bc f577 10bc
00000030: ff86 b43d 551a 78bd f982 8e3c eb7c fa3d
00000040: ad7f 32bd 7db7 96bd 3ae7 c63d ab70 a63b
00000050: 1280 23bd 7f95 53bd e0cb 963b a6de d43d
00000060: 2009 ad3d fd01 973d 78a2 bb3d 6af0 d6bd
00000070: 7ca9 f5bc 76cd 7a3b 45e4 abbd 7aaa 73bd
00000080: fe16 983a eb6b 2ebc 3742 393d aa3f 003d
00000090: 0c8a 9a3d a35d 453d 7436 263d 6275 363e
000000a0: 6080 d63c b927 5d3e 3e91 9d3e a7a5 983d
000000b0: ac70 1e3e 18bf e0bd 522e 76bd f8f8 7a3e
000000c0: b08d eebc 19fe 80bd f1b0 d43b fdb5 103c
000000d0: 8b18 bf3d 0f88 cd3c c8d4 083e 9085 13be
000000e0: 2e0b 8c3d cd37 bdbd e905 533d 2d50 cf3d
000000f0: 9f15 433e d994 683c a33b bc3d 2a90 debd
00000100: 4e9b 893b c8e9 4abd 3572 c83d 43dc 423e
00000110: b827 203e f296 a2bd 8698 593d 3012 5b3c
00000120: 1caf 103e f7ec 313d 9d60 183e e039 88bd
00000130: d679 803d 7c3e 783c 31b1 273b 612a 813c
00000140: 4a99 1f3d 3234 28bd 4898 0e3e e7d5 f13c
00000150: a953 953d bb6d ccbd 6f5f 60bd fb35 d7bd
00000160: 5042 aebd eaeb dd3b a4a1 273e fef8 233e
00000170: c070 1f3d 641c a63d 9523 39be 490b d83d
00000180: e7bd 463e 4033 03bc 3972 283e 224f 6b3d
00000190: ec7e d63d 88bd f03d b33c 2ebe 5e2d 963d
000001a0: f736 ebbb 0c61 003e 7d16 be3c f6ad 4e3d
000001b0: afd5 233e 2fe6 a13d f7ad d6bc 9e80 25bc
000001c0: a378 023e ab3c 903c 905c 3a3e 646e 19be
000001d0: df50 0f3e 0d83 e23d 36fe d03d 7adb dc3c
000001e0: ce4a 073e 5a91 d83d fdaf b93c d06e 303e
000001f0: 4043 1c3d 7207 1c3e da8b c13d 85c1 153c

3.weight f4 [10, 128]
0.16146816 -0.41814482 0.0008222833 0.024587637 -0.442441 0.18931198 0.14335902 -0.008236048
0.10222072 0.14165217 -0.22978772 0.031847194 0.04143927 0.19178343 0.13675176 -0.3352419
-0.18423386 -0.096859105 -0.66078806 0.20878418 -0.0612719 0.2606137 -0.46339846 -0.6277737
0.14063872 0.12801456 -0.2153282 -0.34947383 -0.20003197 -0.03631298 0.19508004 0.10619703
-0.046004515 -0.3561256 0.008865293 -0.056537017 0.04511995 0.051206205 0.11517993 -0.09285826
-0.2630667 -0.0766869 -0.22071512 -0.4053171 0.028516987 -0.07757934 -0.6700149 -0.04039159
-0.07512254 -0.032334853 0.13672176 0.17462538 0.0089263 0.19137609 -0.17326546 0.16442677
0.1022903 -0.5609928 0.02004839 0.24862537 0.088563986 0.14630058 -0.3320124 -0.120329864
0.06543381 -0.13236277 0.10035903 0.032782048 -0.095869325 -0.21958277 0.15634103 0.23116101
0.10285922 0.07553551 -0.09610809 0.15850608 0.14137062 0.080610506 0.25122583 -0.4260205
-0.18956551 0.106380105 -0.780826 -0.37103122 -0.09021007 -0.2092955 -0.23065232 0.121971995
-0.03489774 0.08165186 -0.24782337 0.12841928 -0.5132357 0.19778569 0.122386046 -0.4073059
0.09302202 0.09973545 -0.18841548 -0.16056481 -0.30992767 0.015927993 0.020490395 -0.04562756
-0.057477713 0.07638864 -0.5809408 0.072988406 -0.27683806 0.17023596 0.16151567 -0.026840221
0.21738471 -0.3587009 0.0018224234 -0.6243051 0.042938378 -0.39443326 -0.40700522 0.19095592
0.13060768 -0.33850974 0.10970102 0.050393887 -0.1209591 0.2889824 -0.43835813 0.19342105
-0.3065427 0.025444156 0.18733633 0.25701365 0.24885215 0.12848416 -0.10367231 0.06501218
-0.46248996 -0.00034763615 0.07663146 0.41564372 0.18560676 0.19196992 -0.13864122 0.16232698
0.0776276 0.19684716 0.33420125 -0.13448866 -0.15053935 -0.3020303 0.22930582 0.12953036
0.30298808 0.092546724 -0.20506054 0.08349208 0.15145716 0.07052927 -0.121080615 0.04577013
-0.02492385 0.17189649 -0.49426398 0.041289706 -0.46402425 -0.19910872 0.11604061 -0.5714455
-0.17081226 -0.05356515 0.060110755 -0.0072487257 0.06807278 0.08557784 -0.11459375 -0.0031510736
0.008011457 0.5845247 -0.2481781 0.08160444 -0.4633653 -0.13972427 0.15483823 -0.08320764
-0.43293032 -0.06312418 0.17965934 -0.707006 0.2684845 -0.26348543 -0.22964624 -0.06567067
-0.019203298 -0.121869944 0.15560831 0.32179323 -0.2619592 -0.52201295 0.018219981 -0.48031422
-0.12804197 -0.07021035 0.1329124 -0.049391586 -0.19493216 -0.24307021 -0.11770869 -0.020754399
0.111935854 -0.235011 0.10981425 -0.0039954023 -0.14061965 0.06500612 -0.2634232 0.08742822
-0.09748559 -0.10735469 0.5888322 -0.3749936 0.26420224 -0.17209841 -0.23406324 0.3040887
-0.0360332 -0.31403354 0.3967112 0.2203985 -0.4730221 0.18045218 -0.03743468 0.17740406
-0.5146032 -0.20306307 -0.032232445 -0.07130953 -0.4743511 -0.015984816 0.114772335 -0.0562348
0.507459 0.18940938 -0.11263382 0.051651657 -0.2902183 0.17853768 0.1696492 -0.22420573
0.17620006 0.2640978 -0.2665163 0.3466 -0.25012735 0.18827145 -0.33507228 -0.07246262
00000000: e957 253e 1417 d6be 808e 573a 036c c93c
00000010: a087 e2be 00db 413e b5cc 123e 7df0 06bc
00000020: 1959 d13d 440d 113e 794d 6bbe 3472 023d
00000030: 39bc 293d e062 443e a708 0c3e d4a4 abbe
00000040: cda7 3cbe 115e c6bd 6829 29bf 85cb 553e
00000050: 3ef8 7abd 296f 853e 9042 edbe c7b5 20bf
00000060: 9903 103e 4016 033e ff7e 5cbe 3cee b2be
00000070: 2ed5 4cbe ebbc 14bd 10c3 473e d47d d93d
00000080: 3b6f 3cbd 1856 b6be bc3f 113c 5c93 67bd
00000090: b2cf 383d 99bd 513d 75e3 eb3d 792c bebd
000000a0: aeb0 86be 050e 9dbd 2503 62be b985 cfbe
000000b0: 759c e93c ebe1 9ebd 1986 2bbf a771 25bd
000000c0: d9d9 99bd 8d71 04bd ca00 0c3e ffd0 323e
000000d0: 9e3f 123c 18f8 433e 806c 31be 7e5f 283e
000000e0: 947d d13d 399d 0fbf 853c a43c a697 7e3e
000000f0: 0961 b53d d2cf 153e 87fd a9be 816f f6bd
00000100: 2902 863d 1b8a 07be 0989 cd3d 7846 063d
00000110: 2357 c4bd 4eda 60be dd17 203e 79b5 6c3e
00000120: dba7 d23d 5db2 9a3d 51d4 c4bd 6b4f 223e
00000130: 76c3 103e 1f17 a53d aca0 803e 5c1f dabe
00000140: 761d 42be d0dd d93d 36e4 47bf cef7 bdbe
00000150: 0fc0 b8bd 8f51 56be 1f30 6cbe 74cc f93d
00000160: eff0 0ebd 1739 a73d 69c5 7dbe 5880 033e
00000170: 6a63 03bf 5588 4a3e 89a5 fa3d 668a d0be
00000180: 5482 be3d 1a42 cc3d fdef 40be 1a6b 24be
00000190: d7ae 9ebe 6c7b 823c 79db a73c f7e3 3abd
000001a0: c06d 6bbd a671 9c3d 89b8 14bf f27a 953d
000001b0: b8bd 8dbe 5652 2e3e 5d64 253e 06e0 dbbc
000001c0: 199a 5e3e a5a7 b7be 62de ee3a 76d2 1fbf
000001d0: 27e0 2f3d 28f3 c9be fd62 d0be f389 433e
000001e0: 05be 053e 2651 adbe eeaa e03d d269 4e3d
000001f0: 68b9 f7bd 80f5 933e 7a70 e0be 2b10 463e
00000200: 2af3 9cbe 4370 d03c 18d5 3f3e 4b97 833e
00000210: 19d3 7e3e 5a91 033e 2652 d4bd 1b25 853d
00000220: 7ccb ecbe ef42 b6b9 f4f0 9c3d 41cf d43e
00000230: b30f 3e3e c393 443e f7f7 0dbe 0b39 263e
00000240: 38fb 9e3d 4d92 493e 6d1c ab3e 65b7 09be
00000250: fd26 1abe b7a3 9abe 25cf 6a3e 9ba3 043e
00000260: 4121 9b3e 2389 bd3d 64fb 51be e5fd aa3d
00000270: 9617 1b3e a671 903d 1df9 f7bd 7679 3b3d
00000280: 1a2d ccbc a205 303e 2b10 fdbe 651f 293d
00000290: 9694 edbe 28e3 4bbe b3a6 ed3d 414a 12bf
000002a0: 69e9 2ebe 2167 5bbd b236 763d b886 edbb
000002b0: be69 8b3d 6f43 af3d 21b0 eabd 3e82 4ebb
000002c0: 7c42 033c 69a3 153f 6622 7ebe 3b20 a73d
000002d0: 373e edbe e113 0fbe ea8d 1e3e c468 aabd
000002e0: 0ba9 ddbe 4047 81bd 9ef8 373e 58fe 34bf
000002f0: cd76 893e 90e7 86be 6228 6bbe 587e 86bd
00000300: 3c50 9dbc f396 f9bd c957 1f3e 15c2 a43e
00000310: 841f 86be a4a2 05bf 1242 953c bfeb f5be
00000320: 6f1d 03be 72ca 8fbd 301a 083e d54e 4abd
00000330: 4c9c 47be 66e7 78be 4111 f1bd 2105 aabc
00000340: a03e e53d b9a6 70be 4be6 e03d ddeb 82bb
00000350: 99fe 0fbe ee21 853d 68df 86be 910d b33d
00000360: 86a6 c7bd c7dc dbbd b5bd 163f 29ff bfbe
00000370: 8445 873e 913a 30be 46ae 6fbe 84b1 9b3e
00000380: 8c97 13bd 01c9 a0be bb1d cb3e 25b0 613e
00000390: f42f f2be 75c8 383e 1b55 19bd 69a9 353e
000003a0: 09bd 03bf c4ef 4fbe 2b06 04bd bb0a 92bd
000003b0: 26de f2be 97f2 82bc c20d eb3d 7656 66bd
000003c0: d5e8 013f 88f4 413e 8fac e6bd b090 533d
000003d0: 7e97 94be 95d2 363e 85b8 2d3e 3096 65be
000003e0: ca6d 343e d437 873e d374 88be 8e75 b13e
000003f0: b110 80be 3bca 403e 988e abbe 4867 94bd

3.bias f4 [10]
-0.06156354 0.08263215 -0.07542784 -0.124713354 0.022295393 0.062100686 0.07844315 0.0060338015
0.019818032 -0.0052231103
00000000: 0d2a 7cbd 0b3b a93d e979 9abd b769 ffbd
00000010: d4a4 b63c 4a5d 7e3d cda6 a03d 32b7 c53b
00000020: 6d59 a23c a026 abbb
